model/water_cnn_alpha_model.pth (torch, 77756 bytes, 10 tensors)

conv1.weight f4 [16, 15, 3, 3]
000000 87 97 30 3e 36 0a d3 3d 03 47 6b bc 15 02 76 3e
       0.17245303 0.10304682 -0.014360192 0.24024232
000010 4a b9 df 3d de b4 92 3d dd f5 a0 3d a5 fe 3c 3e
       0.10924013 0.07163404 0.07859395 0.18456514
000020 7f 0f f5 3d bc 2f 1e be e5 24 8e 3b de b7 b4 bd
       0.11965846 -0.15447897 0.0043378943 -0.088241324
000030 bf d3 b9 3c 00 5e 91 bc fe f9 15 bd 06 fe 54 bd
       0.022683976 -0.017745018 -0.036615364 -0.052000068
000040 ef 82 04 3d 93 c2 49 bd 83 f3 ac bc 30 36 f4 3c
       0.03235143 -0.049257826 -0.02111221 0.029810995
000050 ef bf 2b 3c 42 7c d1 bd f7 ad 2b be 9c fb 52 bb
       0.010482772 -0.102287784 -0.16765581 -0.0032193428
000060 e5 2b 10 be d2 30 1f be 79 6c 7b bd 0e c2 83 3d
       -0.14079244 -0.15545967 -0.061382744 0.06433497
000070 c6 71 4e 3e 73 9e 31 bb 22 8f 4f 3e 29 5f 1e 3e
       0.20160589 -0.00271025 0.20269445 0.15465988
000080 e2 a4 41 3e cf e2 b6 3d 5b 4a b5 3d 13 af cd 3d
       0.18910554 0.08929979 0.08852073 0.100431584
000090 ac cf 21 3e e9 b3 81 3e 43 ea 27 3e 7a 7b 0a 3e
       0.15801877 0.25332573 0.16397958 0.13523665
0000a0 7c 4d 79 3e ab b6 2d 3e 65 09 19 3e 54 89 70 3e
       0.24345964 0.16964214 0.1494499 0.23489887
0000b0 45 10 46 3e e3 f5 12 bd 6a b5 32 3d fd a0 4c ba
       0.19342144 -0.035879027 0.04363004 -0.00078059715
0000c0 92 47 42 3d c7 89 31 bd c0 ca 9d bd a6 72 a0 bc
       0.047431536 -0.043344285 -0.07704687 -0.019585919
0000d0 34 aa 29 bd 3b 8a be 3d c5 95 e0 3c 7c 49 f1 3c
       -0.041422084 0.09303709 0.027415166 0.029453985
0000e0 a2 7c 31 3c 94 dd 23 3c f0 c4 a3 3d cc e5 48 bd
       0.010832937 0.010001559 0.07996547 -0.049047276
0000f0 86 fd d7 3c a2 70 d8 bc 6a f0 6b 3d cc 3c 5e 3b
       0.026366007 -0.026420895 0.057602324 0.003391075
000100 93 84 47 3d 7e 50 04 bc f4 6d d2 3d 90 3f 49 bc
       0.048710417 -0.008075831 0.10274878 -0.012283221
000110 95 40 93 bc d7 45 30 bc 11 32 ff 3d 6f 99 9c 3d
       -0.017975131 -0.010758839 0.12460721 0.07646453
000120 14 26 ca 3d 50 c4 69 bd d8 36 b6 bd 54 fd 43 bd
       0.09870544 -0.057071984 -0.08897179 -0.047849014
000130 97 b7 07 bd e6 c4 41 3d a3 15 76 3d e3 21 dc 3d
       -0.03313407 0.047306918 0.060079228 0.10748651
000140 c8 3a 2b bc 9e 61 66 bd 13 bc 1b 3d 7b 63 46 bd
       -0.010451026 -0.05624544 0.03802116 -0.048434716
000150 a8 48 39 3d 6d 40 e6 bc 66 88 26 3d 5c b6 57 bd
       0.045235306 -0.028106892 0.040657423 -0.052664146
000160 d7 57 0f bd 41 32 11 3d 51 c0 82 3c dc 43 06 bd
       -0.03499588 0.035448316 0.015960844 -0.03277956
000170 f2 67 07 3d 7b bc 38 3d 16 34 a0 bd d6 16 6c bd
       0.033058114 0.045101624 -0.078224346 -0.057638966
000180 40 2f a3 3d d9 15 ed bc a0 c2 c3 bc 90 f5 82 bd
       0.079679966 -0.028941082 -0.023896515 -0.063944936
000190 ad f9 25 bd 21 a7 ed 3c e2 bb 06 bc 5a 1d 82 bd
       -0.040521313 0.029010357 -0.008223506 -0.063532546
0001a0 f4 ff 4c 3c 0b 6b 3d bd f9 1f 7f bd 8d e7 b7 bc
       0.012512196 -0.046244662 -0.06228635 -0.02244928
0001b0 8b d6 87 bd 62 dc 66 bd 8b 8d 9d 3d b2 75 e4 3b
       -0.06632718 -0.056362517 0.07693013 0.006972038
0001c0 c3 ca 1c 3c e8 24 ad bd ee b8 45 bd 02 bb f1 bc
       0.009569827 -0.08454305 -0.048272066 -0.029508118
0001d0 15 cb bb 3c 83 07 1b bd 4b 89 d2 bc ab 3d 30 bd
       0.022923985 -0.03784896 -0.025700232 -0.04302756
0001e0 e2 9d b0 39 41 e2 77 bd cd 44 73 bc d2 8d a7 bd
       0.00033686968 -0.060518507 -0.014847946 -0.08181347
0001f0 d1 32 fd bd 2f cd a0 bd 23 5a 87 3d 88 8b 85 3c
       -0.12363208 -0.07851636 0.06608989 0.016301885
000200 10 a5 10 3e c2 e2 4d 3d 1c 4a f6 3d 0a 07 ad 3d
       0.14125466 0.05026508 0.12025854 0.08448608
000210 a2 f2 17 bd 4a 42 65 3d 97 78 2b 3b be 77 da 3c
       -0.037096627 0.05597142 0.0026164406 0.026668426
000220 5d d9 0d 3d db ca dc 3c 99 14 b0 3c 24 3f c2 3c
       0.034631122 0.026952198 0.021494197 0.023711748
000230 d1 7f 4d 3c e0 ef 9b 3c 39 68 a7 3c 4d c7 5e 3c
       0.012542681 0.01903528 0.02043544 0.013597322
000240 b0 c8 8c ba af 10 2b bc 61 86 83 bc aa 7a 23 bc
       -0.0010740962 -0.010440989 -0.016055288 -0.009977976
000250 71 30 a5 bc 58 0d b1 bc b8 6d 15 bc 3f ec 3d bc
       -0.0201647 -0.021612808 -0.009120397 -0.01159197
000260 d2 a9 45 bc e5 0c 95 bd 41 bf b5 bd e5 f0 c5 bd
       -0.012064414 -0.0727785 -0.088743694 -0.096650876
000270 2c fd 88 bd 82 e7 a7 bd db 9e a8 bd 30 c4 78 bd
       -0.06688914 -0.081984535 -0.08233424 -0.060733974
000280 87 34 a2 bd bb 45 9e bd 47 31 0f 3c 83 48 11 3d
       -0.07920175 -0.07728144 0.008739776 0.035469543
000290 9d 39 06 3d e6 fe 19 3c 75 bc b4 3c 17 81 24 3c
       0.032769788 0.009399151 0.02206252 0.010040543
0002a0 ae 32 fb 3b e9 cd 98 3c 3a b7 13 3c 2a 9d ff 3c
       0.0076659536 0.018652873 0.009015853 0.031202871
0002b0 9d ce 0f 3d 20 27 08 3d 48 49 b0 3c 70 8d e3 3c
       0.03510915 0.033240438 0.021519318 0.027777404
0002c0 e6 d4 9a 3c a4 95 99 3c 15 7d ec 3c 5a 2b ba 3c
       0.018900346 0.018748112 0.028868238 0.02272575
0002d0 e3 7a 62 bd 66 21 41 bd d9 8c 10 bd 7a d9 54 bd
       -0.055292975 -0.04715099 -0.035290573 -0.051965214
0002e0 be 6a 4a bd d5 75 1e bd 49 96 2a bd 2c 38 54 bd
       -0.049418204 -0.038686592 -0.04164723 -0.051811382
0002f0 cf 59 5a bd 6c 10 39 bd ca af 0e bd d5 60 cb bc
       -0.053308304 -0.045181677 -0.034835614 -0.024826447
000300 09 3b 34 bd 76 1d 1f bd f8 73 d5 bc 05 9d 04 bd
       -0.044001613 -0.038846456 -0.026056275 -0.032376308
000310 9c d8 28 bd 78 5e 2b bd 2f 4a 56 bc 43 f9 85 b9
       -0.0412222 -0.04183814 -0.01307921 -0.0002555345
000320 c1 57 21 3c 15 74 88 bc 24 84 cc bb 76 38 e0 3b
       0.009847582 -0.016656915 -0.0062413383 0.006842668
000330 a5 3f e2 ba 68 d7 11 bc 10 13 3b bc 31 db fe bc
       -0.0017261399 -0.0089014545 -0.011418119 -0.031110378
000340 b3 17 a6 bc 7a b7 81 bc 7b a3 18 bd ba 56 cd bc
       -0.020274973 -0.015834559 -0.037265282 -0.025065769
000350 24 48 19 bc 90 5f ba bc d3 a2 d1 bc 60 9e 9a bc
       -0.009355579 -0.022750646 -0.025590336 -0.018874347
000360 0a fb c5 bc 2a da d2 bc 2a 70 dc bc 7c b1 15 bd
       -0.024167556 -0.025738794 -0.026908953 -0.036546215
000370 a1 b3 0d bd f5 3f 7a bb da 85 cd bc ed 3e 0d bd
       -0.034595136 -0.0038185094 -0.02508824 -0.03448384
000380 d0 19 85 bb c7 72 cf bc aa 40 e7 bc 62 59 ec bc
       -0.004061915 -0.025323285 -0.028229076 -0.028851215
000390 22 29 1a bd 7b ca 16 bd 1e a8 04 bb 30 01 cf bc
       -0.037636884 -0.036814194 -0.0020241807 -0.025269121
0003a0 3b 5b 0e bd a5 cb 27 3a af a5 ae bc 42 c9 b1 bc
       -0.034754973 0.000640089 -0.021319238 -0.021702413
0003b0 59 72 c8 bc 0e 22 05 bd cc a8 01 bd 68 3e d6 3b
       -0.024468588 -0.03250318 -0.031655118 0.006538201
0003c0 d3 58 c2 bc d1 c0 07 bd 3d 01 52 3b 04 c0 8e bc
       -0.023723995 -0.03314287 0.0032044195 -0.017425545
0003d0 37 10 ab bc fb 8c c7 bc 3b 6d 02 bd 35 41 08 bd
       -0.020881755 -0.024359217 -0.03184245 -0.03326531
0003e0 62 e3 ba 3b c8 ba ac bc a3 91 06 bd 75 e9 0c 3c
       0.0057033757 -0.021085158 -0.032853734 0.008600582
0003f0 8e 92 4c 3b 4e 51 08 bc 3b a0 c9 bc 20 2d b8 bb
       0.0031215283 -0.008320166 -0.024612537 -0.0056206137

conv1.bias f4 [16]
000000 7c 15 11 be 57 97 d7 3b c7 da e4 3d 72 be 47 3d
       -0.14168352 0.0065793204 0.11174541 0.048765607
000010 83 85 91 3d 21 c2 10 bc 68 20 29 be 9c b2 05 ba
       0.071055435 -0.008835346 -0.16516268 -0.0005100162
000020 ea 95 27 3e 0c c5 53 3d cb 37 8f 3d ba 45 7e 3d
       0.16365781 0.05170159 0.069930635 0.062078215
000030 db 23 fa bc 0c 94 2a bc 89 b1 2e 3e 31 95 95 bc
       -0.030534675 -0.010411274 0.17059912 -0.018259617

conv2.weight f4 [32, 16, 3, 3]
000000 25 8a 00 00 b9 88 00 00 05 89 00 00 ea 88 00 80
       4.9557e-41 4.9047e-41 4.9153e-41 -4.9116e-41
000010 6a 8a 00 00 ec 88 00 00 36 89 00 00 a5 89 00 00
       4.9654e-41 4.9118e-41 4.9222e-41 4.9378e-41
000020 5a 89 00 80 a5 91 00 80 96 98 00 80 48 8d 00 80
       -4.9272e-41 -5.2247e-41 -5.4738e-41 -5.0682e-41
000030 9f 8b 00 80 fb 8d 00 00 89 93 00 80 e5 95 00 80
       -5.0087e-41 5.0933e-41 -5.2926e-41 -5.3772e-41
000040 40 9a 00 80 01 93 00 00 7b 89 00 00 11 89 00 80
       -5.5334e-41 5.2735e-41 4.9319e-41 -4.917e-41
000050 5e 89 00 00 27 89 00 00 10 89 00 80 bd 88 00 80
       4.9278e-41 4.9201e-41 -4.9169e-41 -4.9052e-41
000060 d6 89 00 00 de 89 00 00 42 89 00 00 31 89 00 00
       4.9446e-41 4.9457e-41 4.9239e-41 4.9215e-41
000070 cf 88 00 00 f0 88 00 00 d1 88 00 00 f6 88 00 00
       4.9078e-41 4.9124e-41 4.908e-41 4.9132e-41
000080 e2 88 00 00 97 89 00 00 76 89 00 00 13 89 00 00
       4.9104e-41 4.9358e-41 4.9312e-41 4.9173e-41
000090 be e3 9f 91 4b fb 94 90 3e 83 e5 95 79 89 00 00
       -2.5226134e-28 -5.8762885e-29 -9.269943e-26 4.9316e-41
0000a0 97 89 00 00 ee 14 a7 93 5c 89 00 00 37 89 00 00
       4.9358e-41 -4.2177365e-27 4.9275e-41 4.9223e-41
0000b0 3f 89 00 00 42 ad 00 00 fc 88 00 00 21 ab 00 80
       4.9235e-41 6.2153e-41 4.9141e-41 -6.139e-41
0000c0 e7 99 00 00 63 a8 00 00 68 9f 00 80 e8 88 00 00
       5.521e-41 6.0406e-41 -5.7184e-41 4.9113e-41
0000d0 c6 91 00 80 6e 89 00 00 18 89 00 80 06 89 00 80
       -5.2294e-41 4.93e-41 -4.918e-41 -4.9155e-41
0000e0 67 8a 00 00 a9 89 00 80 f8 89 00 80 d0 88 00 80
       4.965e-41 -4.9383e-41 -4.9494e-41 -4.9079e-41
0000f0 00 89 00 80 2a 89 00 00 f0 88 00 00 2e 89 00 80
       -4.9146e-41 4.9205e-41 4.9124e-41 -4.9211e-41
000100 a2 98 00 00 4e 89 00 80 61 8c 00 80 84 8a 00 80
       5.4754e-41 -4.9256e-41 -5.0358e-41 -4.969e-41
000110 dc 93 00 80 00 8d 00 80 c5 9b 00 00 12 91 00 80
       -5.3042e-41 -5.0581e-41 5.588e-41 -5.2041e-41
000120 0a 89 00 00 29 89 00 00 12 89 00 00 e9 88 00 00
       4.916e-41 4.9204e-41 4.9172e-41 4.9114e-41
000130 2f 8a 00 80 f1 88 00 00 e4 88 00 00 56 89 00 00
       -4.9571e-41 4.9125e-41 4.9107e-41 4.9267e-41
000140 17 89 00 00 67 90 00 00 ac 8d 00 80 bf 8a 00 00
       4.9179e-41 5.1802e-41 -5.0822e-41 4.9773e-41
000150 37 8d 00 80 47 9d 00 00 f4 8b 00 80 37 8c 00 00
       -5.0658e-41 5.642e-41 -5.0206e-41 5.03e-41
000160 88 8c 00 80 ba 8d 00 00 00 89 00 00 0f 89 00 00
       -5.0413e-41 5.0842e-41 4.9146e-41 4.9167e-41
000170 4f 89 00 00 e8 88 00 00 81 89 00 00 26 89 00 00
       4.9257e-41 4.9113e-41 4.9327e-41 4.92e-41
000180 c4 88 00 00 4c 89 00 00 d9 88 00 00 a2 89 00 80
       4.9062e-41 4.9253e-41 4.9092e-41 -4.9373e-41
000190 24 8a 00 80 ca 88 00 00 03 89 00 00 87 89 00 80
       -4.9556e-41 4.907e-41 4.915e-41 -4.9336e-41
0001a0 8f 89 00 00 81 89 00 00 e8 88 00 00 ee 88 00 00
       4.9347e-41 4.9327e-41 4.9113e-41 4.9121e-41
0001b0 9a 89 00 00 29 89 00 00 51 89 00 00 2d 89 00 80
       4.9362e-41 4.9204e-41 4.926e-41 -4.921e-41
0001c0 22 89 00 80 7f 89 00 00 70 89 00 00 d4 89 00 00
       -4.9194e-41 4.9324e-41 4.9303e-41 4.9443e-41
0001d0 4f 89 00 00 25 89 00 00 fe 88 00 00 2f 8a 00 80
       4.9257e-41 4.9198e-41 4.9144e-41 -4.9571e-41
0001e0 78 89 00 80 f6 88 00 00 08 89 00 00 4b 89 00 00
       -4.9314e-41 4.9132e-41 4.9158e-41 4.9251e-41
0001f0 77 89 00 00 10 89 00 00 e4 88 00 00 13 8a 00 00
       4.9313e-41 4.9169e-41 4.9107e-41 4.9532e-41
000200 3a 89 00 80 85 89 00 80 3b 8a 00 80 f4 89 00 80
       -4.9228e-41 -4.9333e-41 -4.9588e-41 -4.9488e-41
000210 8e 89 00 00 2e 8a 00 00 c4 89 00 00 fe 88 00 80
       4.9345e-41 4.957e-41 4.9421e-41 -4.9144e-41
000220 e7 88 00 00 0b 89 00 00 d3 88 00 00 a9 89 00 00
       4.9111e-41 4.9162e-41 4.9083e-41 4.9383e-41
000230 cd 89 00 00 63 89 00 00 42 89 00 00 1d 89 00 00
       4.9434e-41 4.9285e-41 4.9239e-41 4.9187e-41
000240 22 83 07 bd ea 1e f2 3b 7d 2b c5 3c 78 44 1b 3d
       -0.033084042 0.007388939 0.024068588 0.037907094
000250 a5 96 90 3d 2b 45 1a 3c 19 19 91 bc e4 68 86 3d
       0.07059983 0.009415905 -0.017712163 0.06562975
000260 83 73 97 bb b5 af 2c 3c 0a e2 54 3c d6 a0 29 3b
       -0.0046219244 0.010539939 0.012993345 0.002588322
000270 d6 a9 94 3c cc 60 be 3c 19 d7 d1 bc 25 3d 25 3a
       0.01814739 0.023239516 -0.025615262 0.0006303362
000280 a9 45 89 3c 6e f5 8c 3b 84 70 68 3c 74 1a 4c 3c
       0.01675685 0.0043017184 0.014186982 0.012457479
000290 94 b9 95 3c 8e 62 f0 3c 6f f3 1e 3b d1 c8 e1 bc
       0.018276967 0.02934387 0.0024253984 -0.027561577
0002a0 17 44 c2 bb 60 e9 0f bb 2b 20 f4 bc b6 a1 48 bc
       -0.005928527 -0.002195917 -0.029800495 -0.012245586
0002b0 3d 0f f5 bc 48 16 77 3c c3 be 01 bd 6d b7 1c 3c
       -0.029914493 0.015080996 -0.031676065 0.0095652165
0002c0 18 1d 3a 3d 5c 09 ed 3c 99 fd c1 bb 93 5d 88 3c
       0.045437902 0.028935127 -0.005920124 0.016646182
0002d0 36 b0 bd 3d 05 b8 8e 3d 4b 8a ee 3c c4 b6 39 3d
       0.09262125 0.06968693 0.029118678 0.045340315
0002e0 ee 36 42 3c 29 68 5d bd b2 4c ac bb cd a1 8c bd
       0.011853917 -0.054054413 -0.005258166 -0.068667985
0002f0 04 c5 d5 3b 90 85 2d bb 6e 20 9e ba 58 72 bd b9
       0.0065237302 -0.0026477315 -0.0012064108 -0.00036134082
000300 b9 6b e5 ba b0 47 22 3a 39 ee d1 39 59 8e c7 3a
       -0.0017503417 0.0006190492 0.00040041076 0.0015224918
000310 72 88 b0 3a f5 15 59 b9 4b 9c a8 bd c6 0f a6 bd
       0.0013468398 -0.00020702912 -0.082329355 -0.08108477
000320 4c 9f 3b be 01 35 5a bd 3a 13 f9 bd 20 60 1a be
       -0.18322486 -0.053273205 -0.1216187 -0.15075731
000330 f4 d9 97 bd c3 18 6d bd bc 24 06 be 76 89 00 00
       -0.07414618 -0.057884943 -0.1309995 4.9312e-41
000340 29 8a 00 80 b6 8a 00 00 60 89 00 80 98 8a 00 00
       -4.9563e-41 4.976e-41 -4.9281e-41 4.9718e-41
000350 15 8a 00 80 35 8a 00 80 46 96 00 80 20 89 00 00
       -4.9534e-41 -4.958e-41 -5.3908e-41 4.9191e-41
000360 6c df 2d bd 6a 0f 1a bd 5f 4c c3 bc 90 4b b9 bd
       -0.0424494 -0.037612356 -0.023840128 -0.090476155
000370 f3 f7 e9 bc 51 d3 92 3c 21 b6 de bd 42 06 11 be
       -0.028560614 0.01792303 -0.10874582 -0.14162543
000380 e5 4c ef bd f4 00 84 3c c8 c3 5a bd a8 63 e5 bc
       -0.11684588 0.016113736 -0.053409368 -0.028001621
000390 6f 52 ad 3d 89 b5 e2 3b 21 e8 01 bd bf 4b d6 bc
       0.084629886 0.0069186133 -0.031715516 -0.026159165
0003a0 8a f1 92 bc 09 fa 33 bd ac 2e 9e 3d b9 ab 83 3d
       -0.01793744 -0.043939624 0.07723746 0.06429238
0003b0 09 cf 7e 3c 0c d8 35 3d 55 e2 02 bd 18 02 5f bd
       0.015552291 0.04439549 -0.03195413 -0.054445356
0003c0 97 0a bd bc 9e db a3 3c 5d b9 4c bd 5e 39 5f 3d
       -0.023076339 0.020002183 -0.049981464 0.05449807
0003d0 17 36 db bc 6f af 96 bb 6e ff a5 bd 02 fc 54 3c
       -0.02675919 -0.00459855 -0.0810536 0.0129995365
0003e0 c3 5a ea 3c f7 50 6c bd 90 de 87 bd bb 92 1b bd
       0.028607732 -0.0576944 -0.06634247 -0.03798173
0003f0 2f 77 f4 3b ab 0d 2f bc 2c a0 4f 3d 6c 7b 81 bd
       0.007460497 -0.010684411 0.05068986 -0.06322369

conv2.bias f4 [32]
000000 4b 91 89 ae 80 dd 6e 3d bb 55 49 bd 70 3d f4 3c
       -6.255848e-11 0.058316708 -0.049154025 0.029814452
000010 5e 28 b9 3b 8f 7d 9d 3c 82 87 60 a0 8d fc 8c ba
       0.005650564 0.01922491 -1.9018374e-19 -0.0010756418
000020 42 f5 c0 ba 09 56 94 3b e1 66 26 bb 20 ea a0 bc
       -0.001472153 0.0045268578 -0.002539091 -0.01964289
000030 db 9c 5c 3d 0a 9c 01 bb 1b a0 a6 bc 14 28 49 3c
       0.053860527 -0.0019776844 -0.020340016 0.012277622
000040 1f c1 02 3d ec a0 ab 3d e2 b7 a9 b1 0b 5b a4 3d
       0.031922456 0.08380303 -4.9394524e-09 0.080251776
000050 58 61 b1 3d 37 ce 12 a1 24 86 7b 3d 02 e2 8a 3d
       0.08661145 -4.9739647e-19 0.061407223 0.06781389
000060 89 38 70 bd 15 f4 3c ba 03 f4 38 bc 9d e6 14 3a
       -0.058647666 -0.0007208002 -0.011288646 0.0005680116
000070 d3 65 b4 3b df fa be 3d d9 cb 36 3d 83 f8 f2 3c
       0.0055053025 0.093251936 0.044627998 0.029659515

conv3.weight f4 [64, 47, 1, 1]
000000 fe 88 00 00 cd 10 c9 bd 2e 37 18 be 52 c9 1c 3e
       4.9144e-41 -0.098176576 -0.148648 0.15311173
000010 57 f7 27 be c2 38 96 bc 33 c0 81 91 ac 53 17 b3
       -0.16402946 -0.018337611 -2.0471063e-28 -3.5233526e-08
000020 81 33 9b 3d fe 72 ec ba 4a 0c f0 39 52 b0 13 be
       0.07578183 -0.0018039641 0.00045785523 -0.1442273
000030 cc 3e 5b 3d 24 a7 b0 b8 ba 50 86 bd a9 2c 11 be
       0.053526685 -8.423466e-05 -0.06558366 -0.14177193
000040 2d 5a bd 3d 2e 10 58 3d 4f 89 00 80 8e a8 2d 3e
       0.09245715 0.052749805 -4.9257e-41 0.1695883
000050 76 aa 95 3c 17 a8 e5 1e ec c2 e6 3d 6c a8 56 bd
       0.018269759 2.4315838e-20 0.11267647 -0.052406713
000060 61 2c c0 bd a0 37 05 2b 68 57 b3 3d b2 2e fe bd
       -0.093834646 4.7328287e-13 0.08756906 -0.1241125
000070 4d 96 fe bb 1b c7 68 3a ca 77 2c 3e 8b 10 4e 3e
       -0.007769382 0.00088797667 0.16842571 0.20123498
000080 bd de d0 bc af d2 92 3d e7 83 a8 3d de 60 d8 bd
       -0.025496835 0.07169091 0.082282834 -0.10565351
000090 8b 5e 93 be b3 f2 9c bd d4 ba bc 3d be 52 05 be
       -0.28783068 -0.07663479 0.09215322 -0.13019845
0000a0 b4 d0 c1 bd f7 78 16 3e 1a f4 41 bd 59 ab 0c 3e
       -0.09463635 0.14694582 -0.047351934 0.13737239
0000b0 dc 73 a1 3d 82 4b 05 3e 00 29 2c 3d f9 16 ac 05
       0.078834265 0.13017085 0.04203129 1.6183241e-35
0000c0 08 f3 31 3e 59 5a 2b 3e ac ea c5 bd 6d cf 6a 3a
       0.17377865 0.16733684 -0.09663901 0.00089573005
0000d0 c9 6a 95 3b 57 2d 28 10 09 30 24 31 19 c1 d3 bd
       0.004559849 3.3167087e-29 2.3892446e-09 -0.10339565
0000e0 83 c2 4e 39 e9 8b 29 3a 90 a9 34 3e 3c e7 1c 3b
       0.00019718152 0.00064676866 0.17642808 0.0023941537
0000f0 74 a6 ef 38 9f 7c 53 3d 75 da 44 3e 7f 41 e0 bd
       0.000114274124 0.05163252 0.1922396 -0.109499924
000100 cf 9d bc 3b c8 a4 00 80 30 88 f5 bd 4f d3 f0 bd
       0.005756117 -5.9112e-41 -0.11988866 -0.11759054
000110 eb 88 78 9e b6 7e d7 bd ca a2 2f 3e 3e a2 fd 3d
       -1.3157325e-20 -0.10522215 0.17151943 0.12384461
000120 9b 8f 23 b3 04 5b 8d bc 11 5f 31 3e ac 40 b1 bd
       -3.8082003e-08 -0.017255314 0.17321421 -0.08654913
000130 6b f2 46 bd c8 b3 bd bd d3 65 02 be 00 3e 4a 3d
       -0.04857103 -0.09262806 -0.12734155 0.049375534
000140 82 9a 00 3e dc 11 85 be 14 5c 2a 3e eb 71 c6 3e
       0.1255894 -0.25990188 0.16636688 0.38758788
000150 33 ce 5c 3c a6 4c e4 bc ec 72 20 3e 85 82 22 3e
       0.013476896 -0.02786858 0.15668839 0.15870102
000160 53 74 9e 3c 75 30 b5 bd 3e eb 35 3d 93 e5 7d bd
       0.019342577 -0.08847133 0.044413798 -0.061986517
000170 41 0b 09 be d6 18 ec 3d 98 8a 00 00 f7 5c f8 3c
       -0.133832 0.115281746 4.9718e-41 0.030317767
000180 48 21 b4 3d a0 15 f0 3d ac 9d 15 3e 39 32 92 3c
       0.087954104 0.11722875 0.14610928 0.017846214
000190 06 89 00 80 48 89 00 80 75 02 15 bd d0 4d 0b 3c
       -4.9155e-41 -4.9247e-41 -0.036379296 0.008502439
0001a0 06 91 5a ab e3 d7 2c bd 8d fe a7 3d 30 4a cf a9
       -7.765042e-13 -0.042198073 0.082028486 -9.205516e-14
0001b0 b2 87 19 3e 62 30 48 bc 96 0f 64 bd bc 5f 92 3d
       0.1499317 -0.012218567 -0.055678926 0.07147166
0001c0 2e 89 00 80 fd 71 1e bd d5 7d 8c bb 6c de a8 9c
       -4.9211e-41 -0.038682926 -0.0042874613 -1.1174802e-21
0001d0 22 c5 0a bc cb 9d a0 bc f3 25 49 3e b3 95 0b 26
       -0.008469852 -0.019606492 0.19643383 4.8428193e-16
0001e0 b9 2b 05 3e 5c 8f 4e 3e 6d bb 6d 3d e4 95 84 3c
       0.1300496 0.20171875 0.05804007 0.016184755
0001f0 91 c2 86 3d bc a0 db 3c 08 ab b4 3d 4c 43 e1 bd
       0.06580079 0.026810043 0.08821684 -0.10999164
000200 16 09 2a be 49 77 dd 3a 69 e8 47 3d a6 f5 06 bc
       -0.16605029 0.0016896512 0.048805628 -0.008237278
000210 7a b8 0f 3d a0 f4 2e 3d 5e 70 bc 3c 25 03 72 3c
       0.03508804 0.04271376 0.0230028 0.0147712575
000220 13 56 99 3d 41 57 94 bd 82 6e 3c bd 5a c2 81 ba
       0.074871205 -0.07243205 -0.046003826 -0.000989984
000230 8b 5d d6 bb 69 89 00 80 2e 6f 31 3e 58 29 28 3e
       -0.006541913 -4.9293e-41 0.17327568 0.16422021
000240 ae 66 b9 bd 81 2d 05 3e 18 27 c3 3c 28 44 21 1a
       -0.09052788 0.1300564 0.023822352 3.3349076e-23
000250 e6 12 e9 2c 0b 0a 80 bd 7b 6c 49 3b 71 4c 1d 3a
       6.6243564e-12 -0.062519155 0.0030734825 0.00060004654
000260 94 d2 b3 3c 4b a1 5b 3d de df a3 38 da 94 b2 3d
       0.021950997 0.053620618 7.814144e-05 0.087197974
000270 92 c3 41 3e 28 12 e4 bd 83 2c 4b bd 54 89 00 80
       0.1892226 -0.111362755 -0.049602997 -4.9264e-41
000280 b8 27 f5 bd b3 a5 19 be 1a 4d 2d 1f 13 ab 02 be
       -0.119704664 -0.15004615 3.6697952e-20 -0.12760572
000290 48 85 90 3d 8a 3d e6 3d dc f8 80 af 33 aa e0 38
       0.070566714 0.112422064 -2.345989e-10 0.000107128544
0002a0 3e 37 4d 3e 91 aa ce bd d8 22 57 be bb d3 a5 3d
       0.20040604 -0.10091127 -0.21009386 0.08097025
0002b0 60 f5 87 3c 18 bd df 3c b7 b0 3d bd e8 86 05 be
       0.016596496 0.027311847 -0.046311107 -0.13039744
0002c0 54 d8 3b 3e 73 84 a7 3e 4e a6 d4 3d 38 81 1f 3e
       0.18344241 0.32718238 0.103832826 0.15576637
0002d0 a2 02 c2 3c 82 4b 3e bd 34 83 b6 3d 0d 75 b7 3d
       0.023682896 -0.04645873 0.08911744 0.089578725
0002e0 eb 12 c6 bc b1 da 01 bc dd d5 d3 bc e7 ac 8b bd
       -0.024178943 -0.007925675 -0.025858814 -0.06820088
0002f0 8b 89 00 00 c2 af 09 bd 52 73 90 bd ff 98 13 3d
       4.9341e-41 -0.03361488 -0.070532456 0.03603458
000300 21 c2 8e bd 2e 54 ac 3b 85 0e 08 85 31 5b f1 30
       -0.06970621 0.0052590584 -6.397356e-36 1.7560976e-09
000310 84 96 1f bc 1c c4 c4 ba 0d 77 91 39 dd 76 81 3c
       -0.009740476 -0.0015012058 0.00027745255 0.015803749
000320 67 ae 04 3e 15 b0 97 b7 80 d1 fa bd ce 46 a1 bc
       0.12957154 -1.8082597e-05 -0.1224699 -0.019687083
000330 35 86 ff 3d 9e aa 28 3e 47 89 00 00 45 dd 19 3d
       0.1247677 0.16471335 4.9246e-41 0.037564535
000340 fc e9 b7 3d 0f aa f3 9e 98 a4 04 3c 2f 76 e3 bc
       0.08980176 -2.579896e-20 0.008095883 -0.027766315
000350 a7 00 48 be be ae 4c 29 bb 12 2d 3e 1a b0 c6 bd
       -0.19531499 4.5448664e-14 0.16901676 -0.097015575
000360 83 e7 8d 3c 89 03 0f 3d cb 84 cf 3d fe cc 11 bd
       0.017322307 0.03491548 0.1013275 -0.035595886
000370 23 0a 0a bd 90 81 f7 bd 28 81 db 3d bb 1b 40 be
       -0.033701073 -0.12085259 0.10717994 -0.18760578
000380 ab e7 02 be 4c b4 c8 3c 36 15 eb bd 90 b7 04 be
       -0.12783687 0.024500035 -0.11478655 -0.12960649
000390 08 c7 10 3d d8 0b 61 bd ef f6 dd 3d c8 71 bc bd
       0.03534606 -0.054942936 0.108381145 -0.092013896
0003a0 40 c3 e7 3d c7 7c 09 bc 95 cf 93 3d 4d 89 00 00
       0.11316538 -0.008391566 0.072173275 4.9254e-41
0003b0 56 9e ba bc cb 92 ce bc ac 09 b3 3c 28 ac 9e bc
       -0.022780579 -0.02521648 0.021855198 -0.0193692
0003c0 ab 93 50 bc ee 8e 00 80 8c 9e 00 80 36 f7 3e 3d
       -0.012730519 -5.1274e-41 -5.6876e-41 0.046622477
0003d0 52 1e 17 bb 3e 8a 00 00 fb ca 9a 3c b4 01 92 bb
       -0.0023058844 4.9592e-41 0.018895617 -0.0044557694
0003e0 87 99 00 80 cb 57 8e ba 92 23 8d bc 19 29 5e 3d
       -5.5075e-41 -0.0010859905 -0.017228875 0.054238413
0003f0 34 b1 04 3b 60 8e 00 80 4a b4 8b 3b 63 92 ca 3b
       0.0020247223 -5.1075e-41 0.0042634355 0.0061820014

conv3.bias f4 [64]
000000 a4 73 fe 3d fe c1 be bc d9 1d 04 be 6f 43 55 3c
       0.124244004 -0.023285862 -0.12902011 0.013016566
000010 32 ab 1d 3d 66 8b 79 3b cc 65 cc 3c e9 9d 45 3d
       0.038493343 0.0038077473 0.024950884 0.048246298
000020 22 35 ad 3c 68 d5 6f bc 1e 84 e6 bc b1 2e 00 3e
       0.0211435 -0.014638282 -0.02813917 0.12517811
000030 e3 0e 01 3d 09 22 55 bd c6 99 87 3d 2e 2b 12 3e
       0.031508338 -0.05203441 0.06621127 0.14274284
000040 fd 90 35 3d c7 7e 88 b6 6a ee cc 3d 9e 6c a3 3c
       0.044327725 -4.0678747e-06 0.100064114 0.019949254
000050 b7 fa 38 3e aa e8 99 af be 78 17 bd b0 84 30 3e
       0.1806439 -2.7995856e-10 -0.036980383 0.17238116
000060 2e d1 c9 3d fd 47 c1 b8 8e dc be 3d c0 6b c9 3d
       0.09854351 -9.216366e-05 0.09319411 0.09835005
000070 8e 2a 9f bd 89 e3 c8 3c 3b 3f 68 bd 31 98 73 bb
       -0.077717885 0.02452256 -0.056700926 -0.003716957
000080 8d 3f f0 3c af e9 62 bd 5c e2 53 3c 6c 20 f9 3d
       0.029327178 -0.05539864 0.012932386 0.12164387
000090 fb 6e 19 a7 f0 e5 03 be d4 c0 90 3d 9e 1f b8 bd
       -2.1293178e-15 -0.12880683 0.07068029 -0.089904055
0000a0 5e 5e 20 bc 6e 7d 14 3d aa 3c dd 3d e8 fa e8 97
       -0.009788124 0.03625243 0.108025864 -1.5055986e-24
0000b0 6f 81 03 3b 6c 8b 88 bb 7c 93 31 be de 80 b5 3d
       0.0020066162 -0.004167011 -0.17341417 0.0886247
0000c0 8b e7 bd 3d 88 9f aa 3d 66 a6 ae 3d 21 6e 82 aa
       0.09272679 0.083312094 0.08527832 -2.3169056e-13
0000d0 87 02 92 9a 2e 02 bc bc 30 ee fa 3d 38 49 f9 3d
       -6.038827e-23 -0.022950258 0.12252462 0.121721685
0000e0 e1 9c 1f bd 49 e2 9d 3d 36 a4 fe bd 33 ec 1d 3e
       -0.03896797 0.07709176 -0.124336645 0.15422134
0000f0 18 41 a6 bc f5 8b 43 a6 29 99 5e 3d 6a 7f 5a b6
       -0.020294711 -6.7843893e-16 0.054345284 -3.2558696e-06

conv4.weight f4 [128, 64, 1, 1]
000000 50 f5 0e 3c 60 e6 13 bd 3b 36 33 ba 96 31 3f 3c
       0.008725479 -0.036108375 -0.0006836389 0.011669537
000010 71 01 e0 3c f4 c4 a6 3c e8 98 29 3d e3 3d 67 3d
       0.027344437 0.020357586 0.04140559 0.056455504
000020 98 3d 2b bd f5 dc 38 bd cc a4 c1 3c 9d db 8e 3d
       -0.041806787 -0.045132596 0.023638152 0.06975482
000030 3a fe b5 3d 90 4c 89 bd 01 d5 15 bd 4a b1 a3 3c
       0.088863805 -0.06704056 -0.03658009 0.019981999
000040 c2 c7 a1 bb a5 89 00 00 96 c7 4f bc 16 3c ac 3d
       -0.004937143 4.9378e-41 -0.012681862 0.08409898
000050 79 95 98 3c 31 89 00 80 0b ac fd bc dd 7a c4 3d
       0.018625962 -4.9215e-41 -0.030965826 0.09593747
000060 a4 74 47 3d e9 88 00 00 c1 2d 48 3d 49 fd 9f 3d
       0.04869522 4.9114e-41 0.04887176 0.07811982
000070 72 b5 95 3b 57 31 c9 3d 3e f3 e0 3d 0d bc 42 3d
       0.004568749 0.09823864 0.10983895 0.04754262
000080 9c b0 8f 3d 67 59 8c 3d 06 13 6e 3d 3b 45 8b 3d
       0.070161074 0.0685299 0.05812361 0.06800314
000090 83 09 44 a5 0f 40 a5 bd c3 66 b4 3d 31 f8 a3 3d
       -1.7003513e-16 -0.08068859 0.08808663 0.08006323
0000a0 a1 66 9b 3d 36 76 89 bc 40 34 90 bd 09 8d 00 80
       0.07587934 -0.01678 -0.07041216 -5.0594e-41
0000b0 2d 6f 88 3d 07 b4 26 bd ec 39 e1 bd 5a f9 9f ba
       0.0666183 -0.04069903 -0.10997376 -0.001220505
0000c0 65 da cf bc e9 37 d0 3d 28 94 07 3d 27 8a 00 00
       -0.025372693 0.10166914 0.033100277 4.956e-41
0000d0 23 89 00 00 1f a2 a5 3d dc 15 a3 3d 77 1b c1 bc
       4.9195e-41 0.08087563 0.07963154 -0.023572667
0000e0 39 f3 6d bd ab 0d aa bc ba c0 08 bd c5 66 83 3c
       -0.058093283 -0.02075847 -0.033386923 0.016040215
0000f0 b8 66 61 3d e5 88 00 00 fb 9c 27 3d ed 35 0f 08
       0.0550296 4.9109e-41 0.040921193 4.3095887e-34
000100 ba db 89 3b c6 48 ec 3d 0d 78 84 3d 8f 3e c2 3d
       0.0042071017 0.11537318 0.0646821 0.09484588
000110 a1 82 3a bc 4a c7 b5 bc 60 ae 8b bc 2b a6 5c bd
       -0.011383683 -0.022189755 -0.017050922 -0.053869408
000120 bc 7e 0d 3d bb fc c6 3d 5c cf 70 3c 34 5e fe ba
       0.03454469 0.09716173 0.014697876 -0.0019406737
000130 23 52 76 bd a5 67 70 3d d0 85 f4 3d 75 f5 a4 3c
       -0.060136925 0.058692593 0.11939585 0.020136574
000140 ce 66 fb 3d 74 89 00 80 80 17 dd 3c 10 b5 a6 bd
       0.12275468 -4.9309e-41 0.026988745 -0.08140004
000150 a7 71 b0 bc 32 89 00 80 46 6f a7 3d e6 80 41 bd
       -0.021538569 -4.9216e-41 0.081755206 -0.047242068
000160 85 2a 49 bd c3 90 00 00 76 0d 3d bd 4f df 27 bd
       -0.049112815 5.1931e-41 -0.046155415 -0.040984448
000170 e2 62 a8 3d 35 07 fd bd 17 55 94 bc e0 83 7f bd
       0.082219854 -0.1235489 -0.01810698 -0.062381625
000180 b6 9e 76 bd 89 02 b0 3d 0d c7 9b bd a9 cf 52 bd
       -0.060209952 0.085942335 -0.07606325 -0.05146757
000190 2d 99 9b 25 d3 80 81 3d a8 c5 46 bd fb ec 0b bd
       2.699201e-16 0.063233994 -0.048528343 -0.03416155
0001a0 80 f5 5e bd 5c 40 b6 3d a7 22 82 3d 1c a6 00 80
       -0.054433346 0.08898994 0.06354266 -5.9589e-41
0001b0 51 02 e1 bc 6b 9a 7c 3c e5 ee 3a 3e 60 23 6a 3d
       -0.027466925 0.0154176755 0.18255194 0.057162642
0001c0 1a 05 54 3d 03 5f 63 bd 56 2e f1 bc 03 8a 00 00
       0.051762678 -0.055510532 -0.02944104 4.9509e-41
0001d0 04 89 00 80 83 ba 44 bd 41 73 3b bd 9e be fc 3d
       -4.9152e-41 -0.048029434 -0.04576421 0.12341045
0001e0 85 3d bb 3d e8 69 9f 3d ef 76 85 3d 0e 43 6d bc
       0.09142593 0.07783872 0.065168254 -0.014481319
0001f0 09 7a a2 bc a1 89 00 80 a0 36 13 3d 1f 8a 00 80
       -0.019833582 -4.9372e-41 0.035940766 -4.9549e-41
000200 33 d6 82 3d 81 e7 02 be 70 2b 24 bd 12 ff a9 3b
       0.063885115 -0.12783624 -0.040080488 0.0051878775
000210 b5 93 8e 3c cb c1 b1 3c 9f 72 1b 3d bc 86 db 3d
       0.017404417 0.021698853 0.037951108 0.10719058
000220 b6 4a 88 bd 9b 27 79 bd ce 63 d4 3c 75 6c 11 3e
       -0.06654875 -0.060828786 0.025926497 0.1420153
000230 95 39 b6 3d f9 5d c2 bd 22 d2 62 bd 2b 36 99 3d
       0.08897702 -0.0949058 -0.05537618 0.07481035
000240 27 6c e2 bc 6d 89 00 00 56 95 1c bd dc 4d ad 3d
       -0.027639462 4.9299e-41 -0.038228355 0.08462116
000250 6a 12 95 3c b9 88 00 00 8c 3e 10 bd d8 46 c2 3d
       0.018197257 4.9047e-41 -0.0352159 0.094861686
000260 cb 99 dd 3d 9c 89 00 80 81 07 21 3d c2 31 5b 3c
       0.10820349 -4.9365e-41 0.039313797 0.013378562
000270 39 74 75 bc c1 3b 05 3e e4 9a a3 3c a1 52 7f 3d
       -0.014981323 0.13011076 0.019971319 0.06233466
000280 2a c9 0a 3d 29 90 0f bb 8b db 10 3d 18 40 bd 3d
       0.03388325 -0.0021905995 0.035365622 0.092407405
000290 0e 38 a0 a4 9a 19 cf bd 66 ea b7 3d d0 b5 98 3d
       -6.94839e-17 -0.10112305 0.08980255 0.07456553
0002a0 c7 9d 09 3e 84 35 ad 3c f6 2b c0 bd 50 8c 00 80
       0.13439094 0.021143682 -0.09383385 -5.0335e-41
0002b0 7e 9a 93 3d 15 c7 4e bc 4a 48 f6 bd 30 f9 f7 bc
       0.072072014 -0.012620707 -0.12025507 -0.030270189
0002c0 78 be fc 3c 30 6f a1 3d fe 67 de 3d 8f 89 00 00
       0.030852541 0.078825355 0.10859679 4.9347e-41
0002d0 3f 89 00 00 e5 b7 90 3d d8 f5 2f 3c 0b 97 a9 bd
       4.9235e-41 0.07066325 0.010739766 -0.08280762
0002e0 c9 d3 0a be af 76 08 3e 05 ad 6b bd 47 57 7c b9
       -0.13557352 0.13326524 -0.05753805 -0.00024065106
0002f0 fd b4 37 3d 69 89 00 00 b6 fc df 39 73 47 2f b0
       0.04485034 4.9293e-41 0.0004272216 -6.3766165e-10
000300 7f a3 da a7 7c 10 90 ac b5 17 c6 aa 1b a2 73 ac
       -6.0684418e-15 -4.0945563e-12 -3.5188315e-13 -3.4622364e-12
000310 26 39 1b 98 88 66 dd a8 c5 66 81 ac c3 eb 37 9e
       -2.0062133e-24 -2.4580395e-14 -3.6778102e-12 -9.736694e-21
000320 8b df 14 ab 00 fb 09 ad 58 b9 65 aa 48 04 20 95
       -5.289039e-13 -7.843282e-12 -2.040359e-13 -3.231512e-26
000330 a3 ac 00 80 b1 8c 22 ad 0e 98 83 ad fb 86 32 ab
       -6.193e-41 -9.239874e-12 -1.4960502e-11 -6.3425627e-13
000340 46 1f ce 2b 5b 89 00 00 8c 18 3a ac 25 d2 6d 97
       1.464586e-12 4.9274e-41 -2.6445816e-12 -7.684407e-25
000350 61 89 c0 96 e0 8c 00 80 f9 7e dd ac 5c c1 18 28
       -3.1105971e-25 -5.0536e-41 -6.2952946e-12 8.479623e-15
000360 ab 84 59 a6 c1 8b 00 00 ad 0e f3 a3 9b 89 00 00
       -7.54668e-16 5.0134e-41 -2.6352328e-17 4.9364e-41
000370 72 23 14 ad 8d 8c 00 00 62 c2 ef ab 02 c7 db 85
       -8.420696e-12 5.042e-41 -1.7035923e-12 -2.0667765e-35
000380 88 59 57 a0 a2 bd 7c 2c ca 42 d8 9b 14 b9 fc a8
       -1.8240832e-19 3.5916621e-12 -3.5777364e-22 -2.8057885e-14
000390 b1 9d 00 80 ed a6 49 ad 30 c4 90 27 eb 09 40 8c
       -5.6569e-41 -1.1462592e-11 4.0180736e-15 -1.4794127e-31
0003a0 0f 90 ec 90 13 f7 04 ad b0 91 00 00 44 8d 00 80
       -9.3307544e-29 -7.558193e-12 5.2263e-41 -5.0677e-41
0003b0 ae 9d 34 9b 4a c8 8c ac 19 9e 01 2c b4 36 46 ad
       -1.49402e-22 -4.001276e-12 1.8419764e-12 -1.12671435e-11
0003c0 4b f7 b8 2a fe 69 3c 89 c6 6b fb ad a0 8a 00 00
       3.285656e-13 -2.2679514e-33 -2.8583257e-11 4.9729e-41
0003d0 a8 9b 00 00 41 88 89 8a e4 2f 11 a2 f4 13 1d ad
       5.5839e-41 -1.3243873e-32 -1.9676517e-18 -8.928847e-12
0003e0 3d e4 79 ac 34 ab 37 ac 3d ba 9f ab 5a 89 00 00
       -3.5511726e-12 -2.61009e-12 -1.1349321e-12 4.9272e-41
0003f0 26 f8 81 87 bd 90 00 00 93 84 33 ab d8 89 00 80
       -1.9555611e-34 5.1922e-41 -6.377756e-13 -4.9449e-41

conv4.bias f4 [128]
000000 23 b2 17 bc 7a 65 b0 3c 93 0e 16 3e 6c a6 8d ad
       -0.00925878 0.021532763 0.14653997 -1.610375e-11
000010 c5 73 c5 3d 80 ef d8 3d 8a aa 2b ba 15 b1 be 3d
       0.09641222 0.10592556 -0.00065485446 0.093111195
000020 b0 b8 e5 3d c1 4a c6 3d 22 92 9f 3d bc f5 23 3c
       0.11216867 0.09682227 0.077915445 0.010007318
000030 4f 9b 93 3d 60 16 af 3c 20 55 91 ba c8 46 7c 3d
       0.07207357 0.021372974 -0.0011087991 0.06159094
000040 16 6a ee 3d 50 99 03 3e 0c 64 42 8e 6c 15 38 bc
       0.11641328 0.12851453 -2.3960517e-30 -0.011235576
000050 ef 64 c1 3d 18 23 d6 3d b6 4e f7 9a e8 43 1d bd
       0.0944308 0.10455912 -1.0228397e-22 -0.03839484
000060 4e 96 50 bb eb 2f 22 3e 1a 07 87 3d 48 3b 35 97
       -0.003182787 0.15838592 0.065931514 -5.855908e-25
000070 63 63 3b bd 4e bc 09 3e bd 53 bc 3c 80 a1 8b 93
       -0.04574908 0.13450739 0.022989148 -3.5247784e-27
000080 7e 58 27 ad 3a d7 cd bc ee a2 e2 3c c1 41 56 a5
       -9.5125e-12 -0.025127042 0.027665582 -1.858382e-16
000090 91 26 02 80 ae 18 ce 3d 8a a0 2c 3d 1e 1f 98 3d
       -1.97506e-40 0.10063301 0.04214529 0.0742781
0000a0 b5 0a f3 a9 87 e7 75 3d ed 63 80 bc dc 43 8f 3d
       -1.0793225e-13 0.060035255 -0.015672648 0.06995365
0000b0 e0 fb b6 3b f3 ff 0c 3e ac f8 88 3d ca f6 6f 3d
       0.005584225 0.13769512 0.066880554 0.058584966
0000c0 e4 8a 00 00 ac 72 da 3c e8 3c c9 3d 33 65 ff bc
       4.9825e-41 0.026666008 0.0982607 -0.031176185
0000d0 df 6e 0b 3e 99 e5 ad 3d b6 08 34 bd 2b 89 00 00
       0.13616513 0.08491058 -0.04395362 4.9207e-41
0000e0 ea be d2 3d 4b a4 03 ad c5 11 96 3d 02 eb 4a 3d
       0.1029032 -7.482968e-12 0.07327608 0.049540527
0000f0 39 a9 10 3e f3 a1 8f bd ed 60 d2 3c c5 2d 9b 3d
       0.14127053 -0.07013311 0.025680983 0.07577089
000100 e7 a1 f9 b9 d8 3a d8 3b 85 b8 ca 3c b5 5c a2 3d
       -0.00047613608 0.0065988116 0.024746189 0.07927839
000110 68 8c 2d 3d ab e7 91 98 ba 74 b2 3b 22 0e 0d 3e
       0.04237023 -3.7715546e-24 0.005446044 0.13774922
000120 23 25 7d b0 a1 5a ca 3d 8b 94 84 3c 13 8b 20 bb
       -9.209364e-10 0.09880567 0.016184112 -0.0024496957
000130 09 63 1c b3 33 11 a6 3d 7c 3c ac 3c 48 0d 91 3d
       -3.6411652e-08 0.08108749 0.021024935 0.07082611
000140 11 4f d9 a2 30 3d ea b3 93 9e 73 bc 6e 78 16 3d
       -5.8901683e-18 -1.0907604e-07 -0.01486935 0.036735944
000150 69 25 a0 3d e4 17 ad 3c b6 2a 11 bd 06 bf c9 3d
       0.078196354 0.021129556 -0.035441123 0.09850888
000160 a4 a0 23 bc 79 07 6f 3d 08 6b c3 b9 87 9b 21 a0
       -0.00998703 0.058356736 -0.00037273043 -1.368869e-19
000170 29 bb 60 b7 0b 80 35 b5 38 66 4f 3d a4 d6 82 3c
       -1.3395017e-05 -6.761408e-07 0.050634593 0.01597149
000180 41 21 9d 3d f9 d6 08 b0 72 2b ca 3d 40 39 f1 3d
       0.07672358 -4.9782006e-10 0.09871568 0.11778498
000190 70 47 4f 3d 36 54 6e 3d 32 47 3d bc 1e cb b9 80
       0.050605237 0.05818578 -0.011552619 -1.7062432e-38
0001a0 ff 63 94 3c 6f 42 22 3e 3d 0f 10 3d 7e ef 46 3d
       0.018114088 0.15845655 0.035170782 0.04856824
0001b0 b2 ba b3 b8 a5 39 94 3c b3 0a 80 3b 06 90 d4 3c
       -8.57016e-05 0.018093893 0.0039075254 0.025947582
0001c0 43 0c 07 3e 4f 05 6f bc e2 63 98 bd 89 f9 a4 3c
       0.13188271 -0.014588668 -0.07440926 0.020138519
0001d0 83 3f de 3d 7a 5e fd b0 ab b8 c2 3d 46 34 92 3c
       0.10851958 -1.8435025e-09 0.09507879 0.017847192
0001e0 8b ac 8c 3d 90 83 a5 3d a7 96 a6 3d 3e 66 f8 3c
       0.068688475 0.08081734 0.081342034 0.03032219
0001f0 4c 1f 95 aa 6f c8 14 3e 61 f7 1c a6 13 29 a2 82
       -2.6489433e-13 0.14529584 -5.4458633e-16 -2.3827336e-37

conv5.weight f4 [2, 128, 1, 1]
000000 7a 3f db 3d 42 42 a7 bd 43 ad b9 3d 6a 34 47 b8
       0.107054666 -0.081669345 0.0906625 -4.749411e-05
000010 4d db 2d be 79 76 0f 3e db 5f 06 3a 45 b8 f1 3d
       -0.16978188 0.14010037 0.0005125978 0.11802725
000020 8c 81 26 3e 6c 67 0d be 03 09 c9 3d 20 c4 24 3e
       0.16260356 -0.13808984 0.09816172 0.16090441
000030 5e 32 c7 3d a0 31 1a be a8 86 db 39 ff 8c fc bd
       0.09726404 -0.15057993 0.00041871262 -0.1233158
000040 ed 36 1e be 4f 71 ca 3c 56 5d 51 b3 26 1f ed bb
       -0.1545064 0.024712233 -4.8746493e-08 -0.007236379
000050 c6 a5 96 3d 7e 56 f3 3d 4d da 02 9b d7 bc 22 be
       0.073558375 0.118817315 -1.0823885e-22 -0.15892349
000060 d1 b0 67 b8 9d b7 20 3e db b3 97 3d 8a 66 d7 ac
       -5.5239365e-05 0.15695043 0.074073516 -6.1220517e-12
000070 cd 84 1b be 0f ed 1d 3e 42 79 f4 3d f1 c8 04 b1
       -0.15187378 0.15422462 0.119371906 -1.932275e-09
000080 8d b8 2f 3c b2 41 00 3e 95 d4 06 3e 15 2d 11 a9
       0.010725153 0.12525061 0.13167031 -3.223557e-14
000090 e0 c1 00 00 e8 b2 b4 3d 8f 97 e1 3c eb d4 2a 3e
       6.9549e-41 0.08823186 0.02753809 0.16682784
0000a0 ba 2e 19 38 0c 13 bc bd 87 a2 37 be b0 26 16 be
       3.652156e-05 -0.091833204 -0.17933093 -0.14663196
0000b0 79 7a b0 bd 6d 04 06 3e ae 70 29 3e db 07 15 be
       -0.0861711 0.13087626 0.1654689 -0.14553778
0000c0 d7 8a 00 00 17 fb f6 bd 76 11 4b 3d 3c 58 2b 3e
       4.9806e-41 -0.1205961 0.0495772 0.16732877
0000d0 58 6f b5 3d 5f 81 2f 3e 21 3f e3 bd ea 8b 00 00
       0.08859128 0.17139195 -0.11096025 5.0192e-41
0000e0 30 04 34 3d a4 2e 3c b5 6f ff de 3d 24 2e ca 3d
       0.043949306 -7.010333e-07 0.10888564 0.09872082
0000f0 a9 dd 09 3e ba b0 d7 bd c1 97 92 3d 95 44 07 3e
       0.13463463 -0.10531755 0.07157851 0.13209756
000100 8e 56 cf 3c 1c 2f e8 3d 9d 11 03 3e 21 60 18 be
       0.025309827 0.113371104 0.12799688 -0.1488042
000110 ff fa 17 be 61 78 0b a1 ec 59 bc bc 99 e0 51 3d
       -0.14841841 -4.725435e-19 -0.022992097 0.051239584
000120 5e 7b c1 3a d1 ca 9b bd 25 75 01 3e f4 90 f2 bc
       0.0014761498 -0.076070435 0.12642343 -0.029610135
000130 e1 9a 56 bc 59 3f 09 be 63 f6 33 3e 22 92 c2 3d
       -0.013098449 -0.13403071 0.17574458 0.09500529
000140 e1 9f fa 2f a0 73 01 bd 02 8c d8 bd ae 04 10 be
       4.5588336e-10 -0.03160441 -0.10573579 -0.14064285
000150 0d a0 22 3e a1 9a ff 3c 2c b5 19 be 0a 27 15 be
       0.15881367 0.031201662 -0.15010518 -0.14565673
000160 12 82 e8 bd f9 6e 98 bd aa 86 99 b9 3f 4f ba ac
       -0.11352934 -0.07443041 -0.00029282767 -5.295236e-12
000170 2c 37 95 b5 01 db 19 39 d1 4a 70 3c 83 c8 26 be
       -1.1117422e-06 0.00014672802 0.014666275 -0.16287427
000180 dd 22 40 3d b5 e8 41 3a 88 d3 36 3e 67 6b 3b be
       0.04690825 0.0007397042 0.1785413 -0.1830269
000190 ef e0 d6 bd 2a 5f d9 ba 57 4f fd bd 4b 89 00 00
       -0.104921214 -0.0016584147 -0.123686485 4.9251e-41
0001a0 b6 57 86 3d f7 aa 17 3e 92 fa f5 3d 1f bf d7 bd
       0.06559698 0.14811312 0.12010683 -0.105345
0001b0 46 35 a3 2e ee ec 3a 3d 23 9b 07 3e f7 a3 e1 bd
       7.421845e-11 0.04563611 0.13242774 -0.11017602
0001c0 0e 77 e0 3d 69 88 00 3e 45 34 0b be c5 94 29 3e
       0.10960208 0.12552036 -0.13594158 0.16560657
0001d0 d0 ab 1f 3e ae 02 c5 33 c8 d1 18 be 23 02 4f be
       0.15592885 9.174015e-08 -0.14923775 -0.20215659
0001e0 01 80 02 3e e3 98 40 be 80 4e 51 be d6 c0 19 3e
       0.12744142 -0.18808322 -0.20440102 0.15014967
0001f0 a6 7b 18 b8 2e 4f 2a 3e 7d 5f ca 27 00 a3 bc 99
       -3.635478e-05 0.16631767 5.616979e-15 -1.950458e-23
000200 ca 23 d0 bd 81 c0 1e 3e aa 5e 12 be f1 f7 47 b8
       -0.10163076 0.15503122 -0.14293924 -4.767621e-05
000210 ea 87 a4 3d 7b 94 16 be 8a 3c 6c 3a ca 6b d4 bc
       0.08033736 -0.14705078 0.00090117066 -0.025930304
000220 96 96 0a be b7 61 67 3d 7e d6 9a bd 3c 13 08 be
       -0.13534006 0.056489673 -0.075604424 -0.13288587
000230 df 77 27 be f8 5e 47 3e 56 8d db b9 b1 a3 30 3e
       -0.16354321 0.19469821 -0.00041876239 0.17249943
000240 20 42 b5 3d d9 59 16 be 75 16 0e 33 75 53 ed 3b
       0.08850503 -0.14682712 3.3082376e-08 0.007242615
000250 00 1f 13 be a6 6e 09 be 47 d4 02 1b 54 7a 47 3d
       -0.14367294 -0.13421115 1.0821938e-22 0.048700646
000260 d3 a8 72 39 8b 50 26 be b9 6d d1 bd 73 20 d7 2c
       0.0002314181 -0.16241662 -0.10226006 6.11427e-12
000270 1d 20 d4 3d 1d e9 c4 bd 50 fe f5 bd 50 4e 06 31
       0.103576876 -0.09614775 -0.12011397 1.9544082e-09
000280 3f b9 2f 3c 01 b0 98 bd dc e0 a0 bd 1c 30 11 29
       0.010725318 -0.07455445 -0.078553885 3.2238196e-14
000290 b1 c8 00 80 14 b2 19 be 85 6b 2e be 5a 82 94 bd
       -7.1995e-41 -0.15009338 -0.17033203 -0.07251425
0002a0 c0 9a 17 b8 0a 25 40 3e 0e 7b f5 3d e7 de 1c 3e
       -3.6145328e-05 0.1876413 0.119863614 0.15319405
0002b0 a7 f3 9c 3d e7 5c 01 be 98 f7 3d be 1d 81 5f 3e
       0.076636605 -0.12633096 -0.18551481 0.21826597
0002c0 df 8a 00 80 16 c5 28 3e 6f a8 da bd a2 b2 15 be
       -4.9818e-41 0.16481432 -0.106766574 -0.14618924
0002d0 73 8d c6 bd 9b 0d 43 bd 20 94 cb 3d 19 8c 00 80
       -0.09694948 -0.047620397 0.09940362 -5.0258e-41
0002e0 cc 7b 0a be 33 ee 61 35 07 73 e6 bc 47 84 0e be
       -0.13523787 8.416566e-07 -0.028131021 -0.13917647
0002f0 ee 63 42 bd 4c cf d0 3d a7 1b 2c be 14 4f 2c bd
       -0.04745858 0.10195789 -0.16807424 -0.042067602
000300 18 0a ce bc 32 66 c8 bd 05 50 f3 bd 2d c1 2c 3d
       -0.025151297 -0.09785117 -0.11880497 0.042176414
000310 ed bc ae 3d ba d6 da 1f 55 d7 ba 3c f9 2f 14 be
       0.085321285 9.2681827e-20 0.022807756 -0.14471425
000320 b7 d9 c1 3a 7c 6b e0 3d 03 04 ab bd a5 86 06 3d
       0.0014789616 0.10958001 -0.083503745 0.03284325
000330 38 99 56 bc c4 15 2a 3d 1f fb 2b bd 64 0d f6 bd
       -0.013098054 0.041524664 -0.041987535 -0.12014273
000340 86 16 27 30 b6 73 01 bd f2 64 8d 3d cb e5 48 3e
       6.0786254e-10 -0.03160449 0.069040194 0.19618909
000350 3b 4c 74 bd cb 63 31 be 02 72 51 3d ae b8 0b 3e
       -0.05964301 -0.17323224 0.051134117 0.13644668
000360 86 0f 0c 3e 6a ce 20 3e 00 45 99 39 4c 48 ba 2c
       0.13677797 0.1570374 0.00029233843 5.2944645e-12
000370 fd 31 95 35 aa 7c d8 39 e2 d0 a2 bd 10 37 0a 3e
       1.1115914e-06 0.00041291612 -0.079499975 0.13497567
000380 eb 55 66 bd 91 4b 91 3a 48 fd 1a be f2 10 83 3d
       -0.05623428 0.0011085143 -0.15135682 0.063997164
000390 14 cd d9 3d 6f 2a 35 bd 5f 22 ea 3d 9d 89 00 80
       0.10634819 -0.04422992 0.11432337 -4.9366e-41
0003a0 a2 c9 9c 3c 8f 13 d7 bd 0e 58 a8 bb e6 37 ca 3d
       0.019139115 -0.105017774 -0.00513745 0.09873943
0003b0 9f 33 86 ae 13 f0 1b bd 2b 36 fe bd 13 be 11 3e
       -6.102784e-11 -0.03807075 -0.124126755 0.14232664
0003c0 f7 c9 ee bd 02 61 a5 bd 7b 76 0b 3e 98 4d ec bd
       -0.116596155 -0.080751434 0.13619415 -0.11538237
0003d0 5e d9 23 be b9 57 c5 b3 4f 00 47 3e 17 f6 32 3e
       -0.16000888 -9.189484e-08 0.19433711 0.17476688
0003e0 73 54 f2 bd 6a cb 08 3e a6 91 17 3e c2 5d f4 bc
       -0.11832514 0.13358846 0.14801654 -0.029829863
0003f0 06 92 59 37 f4 26 0e be 26 1c ca a7 5e e9 bc 19
       1.2968207e-05 -0.13882047 -5.609678e-15 1.9533e-23

conv5.bias f4 [2]
000000 c7 df e5 3c 70 fa 89 bd
       0.028060807 -0.0673722
