code/model/water_cnn_alpha_model.pth (torch, 77756 bytes, 10 tensors)

conv1.weight f4 [16, 15, 3, 3]
0.098998144 0.10348155 0.009934467 0.115231246 0.016866988 0.04980832 -0.0085117975 0.08387252
0.106337406 -0.052523673 0.08594721 0.02492553 0.07706308 0.02607126 0.053234063 -0.00031769363
0.07914698 0.023819054 -0.03846899 0.020711517 -0.039658647 -0.014466215 -0.043957915 0.050491616
-0.07044667 -0.04593075 -0.028740074 -0.04098017 0.021993283 -0.07268885 0.090866156 -0.05542486
0.08293813 0.024125626 -0.015163404 0.06574136 0.06569551 0.12519798 0.06250258 0.029384535
0.08482602 0.035544727 0.0888644 0.13323231 0.104431406 -0.008897152 0.07856128 0.043348942
0.07290335 -0.022653893 -0.055858236 -0.0041273967 -0.036065325 0.1004359 0.05153859 0.062328305
0.05291163 0.025806414 0.09502531 -0.034097403 0.0327615 -0.03081149 0.05421376 -0.0025014523
0.05316894 0.007844023 0.09872124 -0.023623612 -0.02461484 -0.024102783 0.1049509 0.05586686
0.108137265 -0.045977686 -0.06115678 -0.042156804 -0.03278637 0.059464186 0.0560458 0.096894495
-0.019451318 -0.038662765 0.06581121 -0.013873487 0.070736274 -0.0022156255 0.06855333 -0.047957223
-0.024894707 0.045243565 0.03772031 -0.0023694425 0.07221398 0.07607357 -0.045310553 -0.027244786
0.09698538 -0.011427687 -0.012070847 -0.05996698 -0.0258273 0.04672615 0.009392097 -0.04199312
0.024717221 -0.037395455 -0.051998176 -0.02515655 -0.055706963 -0.03508378 0.10758428 0.03322005
0.04298848 -0.0616593 -0.03876222 -0.011519201 0.031803273 -0.061995007 -0.023942184 -0.036743496
0.011307307 -0.022138534 0.0060821297 -0.045961905 -0.047897104 -0.037683737 -0.013192409 -0.051809642
0.0894012 -0.0023426407 0.0884463 0.04252129 -0.057534307 0.07441908 -0.007775358 -0.032991454
-0.07144109 -0.08556373 0.024624482 -0.018800654 0.0335076 -0.07063147 0.063898124 -0.06317729
-0.014861353 0.017976642 0.044431888 0.069482215 0.078402884 -0.068243876 0.021660067 -0.03701935
-0.009431556 -0.064419776 0.07839423 -0.06316841 0.045998238 0.030247107 0.027967758 -0.046531416
0.07823009 0.018913105 0.01107157 -0.07584634 0.03612964 -0.012911715 -0.03942906 0.07392635
0.019188374 -0.047618452 -0.043561503 -0.0041101575 0.04805609 -0.021992847 -0.04910727 -0.02947279
-0.06429797 0.030694038 0.06661878 -0.081026286 0.019988954 0.04446114 0.015606351 -0.030650329
0.04492163 0.04522898 0.03218253 -0.015123688 -0.022790462 0.00920745 -0.015203968 -0.025647849
0.05501417 0.07396533 -0.008520335 -0.019269973 0.0012559071 -0.0051388666 0.020691305 0.02411867
-0.0781703 -0.031761713 0.07247897 0.033527553 -0.004280731 -0.051889867 -0.052655797 -0.07709534
-0.028054379 0.029064946 0.054877736 0.039736576 -0.07607779 -0.05175704 -0.013582692 0.08325619
0.012450136 -0.02228865 0.035606943 -0.032781065 -0.055706896 0.0628187 -0.0391345 -0.017253429
-0.08561912 0.057601653 0.0652068 0.031366706 -0.06001181 -0.08494227 -0.069901235 0.06417967
0.041320927 0.07242518 0.04508754 0.021782704 -0.0008428171 -0.06545394 -0.07373921 -0.080501996
0.03523227 -0.042255796 -0.017321065 -0.04953161 -0.015683308 -0.06057646 -0.056237068 0.02854912
-0.025578592 0.053132437 -0.027610824 -0.063135415 -0.015185446 -0.041720416 -0.02633126 -0.081934735
00000000: 8abf ca3d 23ee d33d 2dc4 223c 5cfe eb3d
00000010: a32c 8a3c cf03 4c3d 1175 0bbc 5bc5 ab3d
00000020: 6dc7 d93d 1023 57bd 1705 b03d a030 cc3c
00000030: 40d3 9d3d 6593 d53c f60b 5a3d 1e90 a6b9
00000040: d017 a23d 2d20 c33c a991 1dbd 33ab a93c
00000050: 1b71 22bd b403 6dbc 370d 34bd 4cd0 4e3d
00000060: 5846 90bd e221 3cbd 4e70 ebbc d3da 27bd
00000070: 422b b43c e4dd 94bd 0918 ba3d 2e05 63bd
00000080: 77db a93d 1ba3 c53c ed6f 78bc 68a3 863d
00000090: 5e8b 863d e633 003e 5a01 803d d6b7 f03c
000000a0: 44b9 ad3d 5997 113d 8afe b53d 0d6e 083e
000000b0: 22e0 d53d 5cc5 11bc bde4 a03d a98e 313d
000000c0: 5a4e 953d a894 b9bc 9bcb 64bd 1d3f 87bb
000000d0: 3cb9 13bd 56b1 cd3d 211a 533d f74b 7f3d
000000e0: deb9 583d f967 d33c a19c c23d b8a9 0bbd
000000f0: ec30 063d 6168 fcbc 3f0f 5e3d 68ef 23bb
00000100: adc7 593d 3884 003c 5d2e ca3d 4e86 c1bc
00000110: 10a5 c9bc 3373 c5bc 7ff0 d63d a6d4 643d
00000120: 1277 dd3d 1953 3cbd 887f 7abd 9dac 2cbd
00000130: 004b 06bd b890 733d 4890 653d 9f70 c63d
00000140: 5f58 9fbc d95c 1ebd 07c8 863d 9f4d 63bc
00000150: 2ede 903d 0734 11bb b065 8c3d cb6e 44bd
00000160: fcef cbbc 5151 393d 9d80 1a3d a648 1bbb
00000170: ece4 933d 76cc 9b3d 8f97 39bd 7530 dfbc
00000180: 45a0 c63d 313b 3bbc cdc4 45bc f09f 75bd
00000190: c693 d3bc eb63 3f3d 4fe1 193c fa00 2cbd
000001a0: c57b ca3c fa2b 19bd 0afc 54bd 1c15 cebc
000001b0: fc2c 64bd 02b4 0fbd 2655 dc3d bf11 083d
000001c0: b014 303d 768e 7cbd 22c5 1ebd 08bb 3cbc
000001d0: 2644 023d 7aee 7dbd 6622 c4bc 5980 16bd
000001e0: 4842 393c df5b b5bc 9a4c c73b 8d42 3cbd
000001f0: c12f 44bd 435a 1abd f924 58bc 5936 54bd
00000200: fa17 b73d fd86 19bb 5523 b53d ce2a 2e3d
00000210: 18a9 6bbd 0869 983d 6ec8 febb 0c22 07bd
00000220: b54f 92bd 093c afbd 48b9 c93c d403 9abc
00000230: 443f 093d 3ba7 90bd 05dd 823d 1863 81bd
00000240: 087d 73bc c043 933c 36fe 353d b14c 8e3d
00000250: b191 a03d 72c3 8bbd 7470 b13c 9aa1 17bd
00000260: d086 1abc 84ee 83bd 278d a03d 705e 81bd
00000270: a668 3c3d c8c8 f73c a41c e53c ba97 3ebd
00000280: 1937 a03d a8ef 9a3c 8865 353c 5355 9bbd
00000290: acfc 133d a88b 53bc 5e80 21bd b366 973d
000002a0: f030 9d3c 910b 43bd 8c6d 32bd 80ae 86bb
000002b0: 76d6 443d 582a b4bc b424 49bd ec70 f1bc
000002c0: a7ae 83bd 1072 fb3c 6d6f 883d 1cf1 a5bd
000002d0: e0bf a33c e21c 363d c8b1 7f3c 6616 fbbc
000002e0: beff 373d 0642 393d d4d1 033d 58c9 77bc
000002f0: 10b3 babc d8da 163c 101a 79bc 701b d2bc
00000300: 8a56 613d 237b 973d e098 0bbc 10dc 9dbc
00000310: 409d a43a f063 a8bb d080 a93c 8494 c53c
00000320: c017 a0bd 9218 02bd db6f 943d 3054 093d
00000330: 6045 8cbb 788a 54bd 9bad 57bd 29e4 9dbd
00000340: 4cd2 e5bc 9c19 ee3c 7ac7 603d d2c2 223d
00000350: acce 9bbd 31ff 53bd f089 5ebc 3982 aa3d
00000360: a8fb 4b3c b096 b6bc 96d8 113d 7045 06bd
00000370: ea2c 64bd 17a7 803d 7f4b 20bd 1057 8dbc
00000380: 1459 afbd b6ef 6b3d 258b 853d 607a 003d
00000390: f2ce 75bd 36f6 adbd 6128 8fbd a170 833d
000003a0: 2240 293d a753 943d b6ad 383d a471 b23c
000003b0: 80f0 5cba b70c 86bd 9504 97bd 3bde a4bd
000003c0: b64f 103d 6a14 2dbd e8e4 8dbc a8e1 4abd
000003d0: 487a 80bc 061f 78bd d758 66bd d8df e93c
000003e0: 328a d1bc 66a1 593d 1830 e2bc 244d 81bd
000003f0: 60cc 78bc 07e3 2abd a8b4 d7bc 66cd a7bd

conv1.bias f4 [16]
0.0026342366 -0.03450245 0.061562356 0.14939342 0.11816345 -0.0025555075 -0.08568453 -0.026911147
0.1606166 0.10521393 0.08592974 -0.0257217 0.042569466 0.04229791 0.039487503 0.09286196
00000000: 28a3 2c3b 7152 0dbd cf28 7c3d 97fa 183e
00000010: aeff f13d 4d7a 27bb 5f7b afbd c474 dcbc
00000020: ae78 243e 677a d73d eefb af3d 51b6 d2bc
00000030: 525d 2e3d 9340 2d3d a6bd 213d 692e be3d

conv2.weight f4 [32, 16, 3, 3]
0.039861552 0.022753425 -0.032007277 0.05075652 -0.026777714 -0.0027685538 -0.03174275 -0.079047635
0.013436519 0.024080776 -0.041956782 0.05112057 -0.074754626 -0.080331385 -0.05147075 -0.02880041
-0.009254843 -0.016103983 0.038032375 -0.07313545 0.012270629 0.0014431402 0.022010855 0.08284
0.051287375 -0.046142053 -0.068287715 -0.020175077 -0.04180225 0.029108763 0.0007639155 0.067026965
0.03273385 -0.015322529 0.0028641596 0.019957162 -0.010340601 0.06724455 -0.06515836 0.04061716
-0.053120326 -0.073006794 -0.017108053 0.04060874 0.058880158 0.020911872 -0.0072024167 -0.004671611
-0.033781778 -0.007478118 -0.005757831 0.07091356 0.048770346 -0.066685334 0.00034472346 -0.051255822
-0.013228409 -0.06623068 0.021663427 -0.060089838 0.082268424 0.06293354 -0.057363242 -0.07845533
0.0032514706 -0.023262642 0.024463892 -0.056409508 0.034111768 -0.07197912 -0.043980837 -0.043808483
0.04032428 -0.0021817684 -0.08008572 -0.047593337 -0.03856474 -0.07731914 0.0106705725 0.029694825
-0.015289806 -0.03316207 -0.00050538033 -0.066190146 -0.05074179 -0.0019005239 0.07403145 -0.025625698
0.041304953 -0.03279587 -0.02218315 -0.07932871 0.069040425 0.08114397 -0.001750268 0.052947484
0.06816181 0.04139313 0.042918272 -0.07933255 -0.07830589 -0.0639617 0.026065469 -0.07208139
-0.06361206 -0.040391903 -0.07680711 0.0001122877 0.012022346 -0.048766702 0.054563783 -0.031637073
-0.02346059 0.06348959 0.071545966 -0.009560041 -0.059823178 -0.041805755 0.010611601 0.04884938
0.04148706 -0.036798537 -0.078780554 -0.07292892 -0.026513021 0.0010453463 -0.0374313 -0.0658921
0.008782305 -0.06614506 -0.063993685 -0.0677455 -0.022581123 0.073604845 0.032576613 -0.009880751
0.017150939 0.03318409 0.00048551708 -0.06721453 -0.05134272 -0.05661273 -0.0021160245 -0.07628348
-0.01878574 -0.03419808 0.07826293 0.06416074 0.044672173 0.0011315751 -0.030338103 0.017707199
-0.06094563 -0.035542004 -0.016740449 -0.01957956 -0.07894185 0.033127584 0.068623506 -0.04596445
0.022463858 -0.009664528 -0.0031843134 0.0048198 0.07228841 0.011103049 -0.052863374 -0.030012254
0.0408826 0.026122438 0.0016772483 -0.0070328983 -0.028596468 -0.026154704 -0.03973822 0.017754378
0.02701176 0.0678455 -0.014798696 0.0095865205 0.05414378 0.03662232 0.011177453 0.026240189
0.0051226327 -0.07066071 0.0040569515 -0.017285626 0.07611045 0.07530877 0.016714398 0.07474866
-0.042855706 0.07256066 0.07196325 -0.0030445757 -0.06674249 -0.026675863 -0.022701222 0.00094947295
-0.075874 0.015002751 -0.03509901 -0.021703398 -0.04344058 -0.018013334 -0.07771534 -0.044178575
0.007679479 0.054609496 0.07573221 -0.0630436 0.03500202 -0.04697085 -0.06442617 -0.0036613035
-0.044510644 -0.068274826 -0.07456609 -0.05218235 0.07234414 0.05014584 -0.029575324 -0.05213295
-0.060518906 -0.046723124 -0.031793278 0.05262342 0.029834228 -0.029466843 0.060097266 -0.0494171
-0.065296575 0.020832617 -0.045213807 0.024556406 0.07150916 -0.03859527 -0.057125565 0.03249318
-0.07448545 0.07533351 -0.03826718 0.04019809 -0.06636722 -0.05650113 0.009043077 0.029474964
0.06450232 0.06951292 -0.0049874997 -0.010897546 0.019233285 -0.013874936 0.007875343 -0.07331068
00000000: de45 233d 6465 ba3c 101a 03bd 12e6 4f3d
00000010: f05c dbbc a070 35bb b004 02bd bae3 a1bd
00000020: d824 5c3c 0c45 c53c e0da 2bbd ce63 513d
00000030: f418 99bd c884 a4bd fed2 52bd d6ee ebbc
00000040: a0a1 17bc 80ec 83bc d6c7 1b3d 0ac8 95bd
00000050: c00a 493c c027 bd3a 1c50 b43c 05a8 a93d
00000060: b612 523d 73ff 3cbd 6eda 8bbd 3446 a5bc
00000070: d638 2bbd 8075 ee3c 8041 483a 6f45 893d
00000080: ee13 063d 580b 7bbc a0b4 3b3b 347d a33c
00000090: a06b 29bc 83b7 893d bf71 85bd 2e5e 263d
000000a0: b394 59bd 9684 95bd 3026 8cbc 5a55 263d
000000b0: 522c 713d 604f ab3c 4002 ecbb 5014 99bb
000000c0: c35e 0abd 000b f5bb 30ac bcbb 213b 913d
000000d0: 6ac3 473d 5292 88bd 00bc b439 a0f1 51bd
000000e0: f8bb 58bc f3a3 87bd 8077 b13c c320 76bd
000000f0: 597c a83d 4de3 803d b8f5 6abd 30ad a0bd
00000100: a016 553b 4c91 bebc 8068 c83c a80d 67bd
00000110: c8b8 0b3d ca69 93bd 4025 34bd 8670 33bd
00000120: 122b 253d 00fc 0ebb fb03 a4bd 3bf1 42bd
00000130: 10f6 1dbd 7f59 9ebd a0d3 2e3c 9042 f33c
00000140: 1882 7abc f3d4 07bd 807b 04ba b38e 87bd
00000150: a0d6 4fbd 001b f9ba cd9d 973d fcec d1bc
00000160: 622f 293d f654 06bd 70b9 b5bc 1777 a2bd
00000170: 1165 8d3d cf2e a63d 4069 e5ba 76df 583d
00000180: 6b98 8b3d d88b 293d 12cb 2f3d 1b79 a2bd
00000190: d75e a0bd 5afe 82bd 4087 d53c 689f 93bd
000001a0: 0a47 82bd fb71 25bd 0c4d 9dbd 007c eb38
000001b0: 60f9 443c 98bf 47bd 467e 5f3d e095 01bd
000001c0: 6c30 c0bc d506 823d b186 923d b8a1 1cbc
000001d0: 2609 75bd 833c 2bbd 48dc 2d3c 4a16 483d
000001e0: 56ee 293d 10ba 16bd b357 a1bd c25b 95bd
000001f0: d631 d9bc 0004 893a 9051 19bd 70f2 86bd
00000200: a8e3 0f3c 1077 87bd 1f0f 83bd 27be 8abd
00000210: 0cfc b8bc 23be 963d 0e6f 053d e0e2 21bc
00000220: 2080 8c3c 0aec 073d 008d fe39 c6a7 89bd
00000230: be4c 52bd c0e2 67bd 00ad 0abb 833a 9cbd
00000240: 8de4 99bc 4913 0cbd 5148 a03d b566 833d
00000250: 2bfa 363d 5c51 943a 9d87 f8bc b00e 913c
00000260: 20a2 79bd 7e94 11bd 4423 89bc 5065 a0bc
00000270: 44ac a1bd cab0 073d 7b8a 8c3d 3845 3cbd
00000280: 2006 b83c f857 1ebc eaaf 50bb 6aef 9d3b
00000290: f20b 943d 90e9 353c 4487 58bd 42dc f5bc
000002a0: 8374 273d b9fe d53c 1dd7 db3a 3a74 e6bb
000002b0: 2443 eabc 6442 d6bc 8bc4 22bd a171 913c
000002c0: c447 dd3c 95f2 8a3d 3b76 72bc c810 1d3c
000002d0: dec5 5d3d 4901 163d a321 373c aaf5 d63c
000002e0: c2db a73b 90b6 90bd 2df0 843b 969a 8dbc
000002f0: ccdf 9b3d 7c3b 9a3d a2ec 883c d315 993d
00000300: 7789 2fbd af9a 943d 7861 933d 8187 47bb
00000310: 49b0 88bd 5787 dabc eaf7 b9bc 0de6 783a
00000320: d463 9bbd 19ce 753c fbc3 0fbd 53cb b1bc
00000330: c0ee 31bd b390 93bc 3829 9fbd 98f4 34bd
00000340: 24a4 fb3b 35ae 5f3d 7d19 9b3d 011d 81bd
00000350: 475e 0f3d 8264 40bd def1 83bd 7bf2 6fbb
00000360: cb50 36bd acd3 8bbd 1bb6 98bd 29bd 55bd
00000370: 2a29 943d b965 4d3d f347 f2bc 5c89 55bd
00000380: ace2 77bd bf60 3fbd ab39 02bd a88b 573d
00000390: e966 f43c 7364 f1bc 8d28 763d 9669 4abd
000003a0: 36ba 85bd 2aa9 aa3c 1d32 39bd 842a c93c
000003b0: 6573 923d 1316 1ebd 7ffc 69bd 9217 053d
000003c0: d48b 98bd 7548 9a3d 0cbe 1cbd c1a6 243d
000003d0: 89eb 87bd bb6d 67bd 6a29 143c 7b75 f13c
000003e0: cb19 843d ca5c 8e3d 2e6e a3bb 9f8b 32bc
000003f0: 1f8f 9d3c b353 63bc 9507 013c e923 96bd

conv2.bias f4 [32]
-0.023623846 0.03159237 -0.040854573 0.053235635 0.05060295 0.024093108 -0.08060607 0.023853805
-0.032281447 -0.05869658 -0.034890026 0.059663396 0.054173727 -0.07421907 -0.0020789474 0.13440199
-0.047039922 0.021695973 -0.03819932 0.119462684 0.054559447 -0.051334273 0.023729714 0.13002335
0.05479617 -0.06483346 -0.0050104484 0.01278917 0.02580155 0.0081257485 0.020349583 0.011058342
00000000: cc86 c1bc 0067 013d 2057 27bd 9c0d 5a3d
00000010: 0a45 4f3d e95e c53c cc14 a5bd 0e69 c33c
00000020: 8d39 04bd d36b 70bd d8e8 0ebd 9b61 743d
00000030: 45e5 5d3d 2b00 98bd f33e 08bb ada0 093e
00000040: efac 40bd c1bb b13c e476 1cbd daa8 f43d
00000050: ba79 5f3d e343 52bd d164 c23c d724 053e
00000060: f371 603d 68c7 84bd b02e a4bb ab89 513c
00000070: c65d d33c dc21 053c 2bb4 a63c 0c2e 353c

conv3.weight f4 [64, 47, 1, 1]
0.09425774 -0.07509554 -0.048514463 0.14119893 -0.096380346 -0.039780896 -0.0581562 -0.13256963
0.07031459 -0.064769484 -0.06736968 -0.041427918 0.09097445 0.12807572 0.11959204 -0.011918728
-0.12509711 0.022685913 0.005265912 0.22500758 0.01457622 -0.13705856 0.043945607 -0.0068713166
0.026686708 0.04437741 0.05117225 0.07588667 -0.10227738 -0.07370551 0.20681952 0.1821309
-0.15214063 0.08555415 0.08411072 -0.08147565 -0.1734441 -0.11099525 0.089878045 -0.11121843
-0.074286655 0.14880475 -0.061506603 0.15254965 0.08053353 0.09259653 0.038909752 -0.0261117
0.06776623 0.04344845 -0.07292833 -0.1011589 -0.108392 -0.01765339 0.042987313 -0.0924539
0.026873708 0.08405692 0.09584619 -0.051951412 0.033437446 -0.1269473 0.11837005 -0.11657604
0.009837153 -0.04581549 -0.11973087 -0.12193926 -0.093706384 -0.100228764 0.1276527 -0.0072853547
-0.097384095 0.0006714896 -0.06305808 -0.021116508 0.12573683 -0.12729476 -0.12646751 0.06548613
0.11333775 -0.1537427 0.052408822 0.1722295 -0.005753368 -0.0693017 0.08684644 0.09765536
-0.0010501449 -0.10516339 0.019987587 -0.081154555 -0.11609979 0.099525675 0.10018015 0.058478657
-0.11901997 0.12253971 0.10660362 0.12528361 -0.0096952915 -0.0270143 -0.13081953 0.107639134
-0.0076485425 -0.14585404 0.14181371 -0.01885967 0.08773019 -0.021553054 -0.022947155 0.12798499
0.12114285 -0.07031296 0.003330731 0.09907843 0.0070123696 -0.027705014 0.13006127 0.12988053
-0.039099902 0.110442944 -0.014446944 0.00358567 0.11565625 -0.012253524 -0.014453555 -0.031284958
-0.121750444 0.1131602 -0.113903664 -0.112691246 0.018974505 -0.016167836 0.004846081 0.010441751
0.1435563 -0.14264318 -0.08875937 0.026358096 -0.13027826 -0.1152375 0.11215095 0.056193568
-0.044525 0.06017084 0.040450405 -0.014370665 0.12309513 -3.8756123e-05 0.10348338 -0.11349785
-0.050666835 0.019353002 0.07791713 -0.052898068 0.11748282 -0.12101662 -0.056042068 0.10945514
-0.124835595 -0.13301839 -0.036817238 -0.114466935 0.062163826 -0.006385427 -0.043053385 0.08124309
0.011955704 -0.13149673 -0.14486152 0.08083099 0.053573843 0.14063175 -0.08997923 -0.057201065
0.14500387 0.184962 0.13490143 0.16847062 -0.014618842 -0.084126584 0.10256098 0.111359276
-0.023901409 0.002705284 0.0027182228 -0.1145421 -0.06041666 -0.04100445 0.055423655 -0.011773171
0.053456604 0.12263525 -0.031093664 -0.036878508 -0.09161773 -0.011132091 -0.13351436 0.09382298
0.16000138 0.038903207 0.13433573 0.06676592 0.09669278 0.14244744 -0.09907491 0.051457968
0.0872785 -0.03904344 -0.10742937 -0.020583658 -0.08326842 -0.050905295 -0.11148274 -0.04600765
0.083578475 -0.034362916 0.10667813 -0.08955602 -0.13641977 -0.011373753 0.16181102 -0.15665941
0.021093098 0.018653182 -0.122719586 -0.10662747 0.07705325 -0.059712745 0.118810676 -0.08408246
0.12977973 -0.05580095 0.06899642 0.04364343 -0.11445778 -0.07649748 -0.03533341 0.00046281517
0.07203843 -0.059959747 0.0214611 -0.07912482 -0.069334775 0.09518789 -0.03994994 -0.12781198
0.0061270893 -0.02079384 0.041467577 -0.07440878 0.0062826127 -0.07196113 -0.08815542 0.033343717
00000000: 340a c13d b1cb 99bd 1ab7 46bd 7496 103e
00000010: 0f63 c5bd 4bf1 22bd 3235 6ebd 55c0 07be
00000020: 1901 903d dda5 84bd 1df9 89bd 52b0 29bd
00000030: d050 ba3d 4826 033e acec f43d c546 43bc
00000040: 7519 00be cfd7 b93c ac8d ac3b 6368 663e
00000050: 19d1 6e3c 1459 0cbe 4f00 343d c828 e1bb
00000060: 159e da3c 16c5 353d fe99 513d 786a 9b3d
00000070: ce76 d1bd eaf2 96bd 7fc8 533e 8680 3a3e
00000080: c1ca 1bbe 0437 af3d 3e42 ac3d b5dc a6bd
00000090: 559b 31be 7a51 e3bd fb11 b83d 7dc6 e3bd
000000a0: 9a23 98bd 4660 183e 59ee 7bbd fa35 1c3e
000000b0: c3ee a43d 40a3 bd3d d55f 1f3d 34e8 d5bc
000000c0: 05c9 8a3d 00f7 313d 735b 95bd 662c cfbd
000000d0: a0fc ddbd d89d 90bc 7713 303d 7858 bdbd
000000e0: 4026 dc3c 0926 ac3d 024b c43d 01cb 54bd
000000f0: b4f5 083d 79fe 01be ff6b f23d 6bbf eebd
00000100: 032c 213c 06a9 3bbd 7535 f5bd 4abb f9bd
00000110: 22e9 bfbd bd44 cdbd 64b7 023e fcb9 eebb
00000120: 5071 c7bd e706 303a 9824 81bd 87fc acbc
00000130: 28c1 003e 8f59 02be b380 01be 981d 863d
00000140: 9f1d e83d ba6e 1dbe a2aa 563d ee5c 303e
00000150: c086 bcbb 0dee 8dbd 8cdc b13d 89ff c73d
00000160: 04a5 89ba e75f d7bd 02bd a33c 5c34 a6bd
00000170: bac5 edbd 1ed4 cb3d 402b cd3d 5187 6f3d
00000180: bec0 f3bd 19f6 fa3d 0053 da3d 594a 003e
00000190: 00d9 1ebc 184d ddbc 8ef5 05be e871 dc3d
000001a0: a0a0 fabb c35a 15be 9d37 113e 987f 9abc
000001b0: e3ab b33d 0890 b0bc acfb bbbc 7f0e 033e
000001c0: be19 f83d 3e00 90bd 6548 5a3b a2e9 ca3d
000001d0: 05c8 e53b a0f5 e2bc c82e 053e 67ff 043e
000001e0: 3827 20bd e92f e23d e0b2 6cbc 8ffd 6a3b
000001f0: 2fdd ec3d 01c3 48bc 9bce 6cbc a824 00bd
00000200: 4c58 f9bd 89c0 e73d 5346 e9bd abca e6bd
00000210: 6c70 9b3c 6972 84bc e0cb 9e3b e113 2b3c
00000220: 6c00 133e 0e11 12be 79c7 b5bd efec d73c
00000230: aa67 05be a301 ecbd 66af e53d 3a2b 663d
00000240: d95f 36bd b375 763d 53af 253d f072 6bbc
00000250: 4d19 fc3d 128e 22b8 18ef d33d 9071 e8bd
00000260: 0788 4fbd 308a 9e3c 0493 9f3d a5ab 58bd
00000270: d59a f03d 90d7 f7bd 5e8c 65bd 042a e03d
00000280: cea9 ffbd f935 08be accd 16bd a46d eabd
00000290: 7f9f 7e3d d83c d1bb bf58 30bd c762 a63d
000002a0: dbe1 433c 14a7 06be 9456 14be b88a a53d
000002b0: 3f70 5b3d c501 103e 0847 b8bd aa4b 6abd
000002c0: e57b 143e ae66 3d3e 9a23 0a3e 9083 2c3e
000002d0: de83 6fbc 8f4a acbd 7e0b d23d 5510 e43d
000002e0: e3cc c3bc 224b 313b 3624 323b 0c95 eabd
000002f0: 7677 77bd 48f4 27bd ea03 633d 42e4 40bc
00000300: 50f5 5a3d 3128 fb3d 24b8 febc eb0d 17bd
00000310: 14a2 bbbd 6063 36bc fdb7 08be 4326 c03d
00000320: 67d7 233e f858 1f3d 4e8f 093e 92bc 883d
00000330: dd06 c63d bedd 113e c9e7 cabd 97c5 523d
00000340: 12bf b23d 04ec 1fbd ee03 dcbd 0f9f a8bc
00000350: a288 aabd 1282 50bd 1051 e4bd 8572 3cbd
00000360: 312b ab3d 21c0 0cbd 107a da3d 2669 b7bd
00000370: a0b1 0bbe fa58 3abc cab1 253e 536b 20be
00000380: 6fcb ac3c 8fce 983c 6854 fbbd 815f dabd
00000390: 18ce 9d3d 5a95 74bd 0353 f33d 6d33 acbd
000003a0: fae4 043e 898f 64bd ff4d 8d3d 74c3 323d
000003b0: d768 eabd b6aa 9cbd c4b9 10bd 00a6 f239
000003c0: e288 933d 5a98 75bd 30cf af3c 320c a2bd
000003d0: 64ff 8dbd def1 c23d 8ca2 23bd 25e1 02be
000003e0: c0c5 c83b d857 aabc e8d9 293d a163 98bd
000003f0: 60de cd3b 5b60 93bd d48a b4bd 6c93 083d

conv3.bias f4 [64]
0.077571355 0.063757606 -0.13638589 0.124552645 0.044134073 -0.094945684 0.17628853 -0.0058243633
0.1342627 0.025923114 -0.086181976 0.08499679 -0.0028256234 0.049966983 0.16831587 0.12698042
0.057928674 -0.030764274 0.19503562 -0.063969664 0.16768351 -0.08313475 0.07004668 0.10447731
0.10713347 -0.053106945 0.08018977 0.08322384 -0.13313077 -0.014390816 -0.073215306 0.0011609653
-0.022769164 -0.046438556 -0.04482741 0.063416965 -0.0047077024 -0.09228959 0.15890923 -0.14966634
-0.099470004 0.08631127 0.06765925 -0.06629448 -0.08746114 0.073366895 -0.13564418 0.199732
0.14228466 0.100893766 0.02618339 0.016531143 -0.111822 -0.05766239 0.11042004 0.30809715
0.018726857 0.037918884 -0.13835356 0.085236326 -0.08501607 -0.0785261 0.20999305 -0.05119503
00000000: bbdd 9e3d 5993 823d bea8 0bbe 7515 ff3d
00000010: eec5 343d e272 c2bd fb84 343e 4dda bebb
00000020: 297c 093e b65c d43c 2d80 b0bd cc12 ae3d
00000030: 182e 39bb 2eaa 4c3d ff5a 2c3e 2807 023e
00000040: 9e46 6d3d 5c05 fcbc 6bb7 473e 8702 83bd
00000050: 3ab5 2b3e 8d42 aabd a274 8f3d 33f8 d53d
00000060: cb68 db3d ab86 59bd 893a a43d 4371 aa3d
00000070: 6f53 08be 75c7 6bbc e8f1 95bd 882b 983a
00000080: 6686 babc 5b36 3ebd f29c 37bd c1e0 813d
00000090: 1243 9abb 5302 bdbd 1ab9 223e 2242 19be
000000a0: eeb6 cbbd f7c3 b03d ef90 8a3d 66c5 87bd
000000b0: d31e b3bd 6241 963d 4fe6 0abe 8c86 4c3e
000000c0: 12b3 113e 64a1 ce3d 8c7e d63c 526c 873c
000000d0: ef02 e5bd 662f 6cbd e723 e23d e9be 9d3e
000000e0: 1169 993c d550 1b3d 8eac 0dbe 6290 ae3d
000000f0: e81c aebd 4bd2 a0bd 6b08 573e e1b1 51bd

conv4.weight f4 [128, 64, 1, 1]
-0.06293821 0.017194316 0.0985041 0.11358054 0.010554012 0.08509894 0.089145936 -0.020884154
-0.098771825 0.0033635402 -0.042458255 0.043842286 -0.09158586 -0.08385566 -0.09407907 -0.093481496
0.09508146 -0.12455575 -0.004601255 -0.07714631 -0.052576993 -0.036023006 0.05863777 0.08421013
-0.027959516 0.0040803277 -0.0011634518 0.11388057 0.055864673 -0.025954157 0.08475268 -0.10089689
0.049542353 0.097079895 -0.06485036 0.046982102 0.057314962 -0.10488061 0.03620742 0.09452604
0.01148141 -0.024159519 -0.04898742 -0.08296296 0.030356213 -0.11814389 -0.1069985 -0.045228563
-0.118318014 0.116808146 -0.03996666 -0.06645806 0.031422094 0.053795576 0.09420303 -0.0504652
-0.021842316 -0.09432118 -0.109149754 -0.054388806 0.01406653 -0.061967894 -0.034507085 0.04589935
0.025791518 0.07706661 0.057722494 0.06580474 -0.06462141 0.06704579 -0.11214359 0.038493767
-0.07890831 0.034467187 -0.11436346 -0.02076703 0.07688555 -0.062586606 0.07730485 -0.019445872
0.11723008 0.11775259 -0.07382887 -0.029277518 -0.025618164 -0.04726343 0.041033916 -0.113819055
-0.07496246 -0.019595519 -0.11121654 -0.11973474 0.051263377 -0.10436897 0.08305 -0.07258102
-0.009970352 0.075371146 -0.12326819 -0.12170054 0.0052052224 -0.050792187 0.05842874 0.043630168
0.015384987 0.04684302 0.10692849 0.019835437 0.082704455 -0.07056627 0.10299249 -0.022323173
0.06763552 -0.10388519 -0.07512062 -0.073174015 0.06603311 -0.004165381 -0.11473695 0.12243153
0.032566022 0.1149676 0.015603691 0.017903645 0.090100035 -0.085042864 0.11799343 -0.080399916
0.04804791 -0.09066635 -0.08284281 0.064762235 -0.017215366 -0.023459375 0.0694903 0.12270398
-0.13136232 -0.01440921 0.036331978 0.1122946 -0.04863846 -0.05992553 -0.084598765 0.044383034
0.022350997 -0.0091126235 -0.030734641 -0.0870229 -0.060021486 -0.047550466 0.021251207 0.07991702
0.08310334 -0.09484349 0.025823198 -0.017499685 0.124613 0.09050407 -0.08093064 -0.061081465
-0.09441008 -0.019549323 -0.108263575 0.08970092 -0.055109896 -0.07827705 0.039547473 -0.040706944
0.09443112 0.09667058 -0.11154542 0.05574907 0.0026420343 0.052220613 -0.046922993 -0.036296148
0.0019382669 0.052570507 0.09537693 0.048701707 0.015340984 -0.09864318 -0.0612893 -0.10326072
-0.13322735 0.13358739 -0.056592897 -0.08437819 -0.056523204 0.06789156 -0.08331185 -0.09969781
-0.09342837 0.027470723 -0.0051140636 -0.11278145 -0.08550443 -0.108327925 0.042881757 0.056568295
0.021292657 -0.040047765 -0.06697276 0.04941766 -0.028704524 -0.020065293 -0.040977374 0.021724597
0.02932182 0.10270111 0.11101228 -0.03221555 0.01857771 -0.083550155 -0.09383841 0.10365461
0.014724836 -0.06215234 0.06284279 0.050428048 0.04474561 0.052890718 0.006675914 -0.09093119
-0.11112325 0.12203576 0.08726436 -0.09752147 0.097956 -0.11690934 0.08314969 0.08704324
0.07853183 0.052902505 -0.07571091 -0.05360666 0.02679643 0.04929936 0.10957527 0.005560294
0.05147417 -0.09440176 -0.025371715 0.07433599 0.0102164 0.098817185 -0.10030301 -0.08340727
0.039296955 -0.0052271336 -0.106805906 0.053335264 0.005151987 0.030228406 0.027469411 -0.08619253
00000000: c0e5 80bd 18db 8c3c 85bc c93d ea9c e83d
00000010: bcea 2c3c 5a48 ae3d 2592 b63d 3f15 abbc
00000020: e248 cabd d76e 5c3b b5e8 2dbd f893 333d
00000030: 5e91 bbbd 84bc abbd 87ac c0bd 3a73 bfbd
00000040: 12ba c23d 1617 ffbd 20c6 96bb e2fe 9dbd
00000050: f95a 57bd dc8c 13bd 292e 703d 5c76 ac3d
00000060: 5b0b e5bc 45b4 853b f77e 98ba 373a e93d
00000070: 5bd2 643d d09d d4bc d092 ad3d 07a3 cebd
00000080: ecec 4a3d d3d1 c63d 44d0 84bd 4e70 403d
00000090: 18c3 6a3d a5cb d6bd 3b4e 143d de96 c13d
000000a0: 861c 3c3c 2fea c5bc 08a7 48bd 7ce8 a9bd
000000b0: 98ad f83c 6cf5 f1bd 0822 dbbd 9641 39bd
000000c0: b750 f2bd 1c39 ef3d 15b4 23bd 2a1b 88bd
000000d0: 74b4 003d c058 5c3d 85ed c03d 99b4 4ebd
000000e0: a8ee b2bc 762b c1bd e889 dfbd ccc6 5ebd
000000f0: 4e77 663c 0cd2 7dbd 4d57 0dbd f500 3c3d
00000100: bc48 d33c 19d5 9d3d 6c6e 6c3d a3c4 863d
00000110: 3b58 84bd 4e4f 893d 8aab e5bd a4ab 1d3d
00000120: ae9a a1bd 772d 0d3d 6437 eabd 9e1f aabc
00000130: 2c76 9d3d 682d 80bd 0152 9e3d f34c 9fbc
00000140: 5316 f03d 4528 f13d 9733 97bd 68d7 efbc
00000150: 2fdd d1bc 4c97 41bd 2e13 283d f719 e9bd
00000160: eb85 99bd c886 a0bc 7fc5 e3bd 7d37 f5bd
00000170: 8cf9 513d 66bf d5bd 1e16 aa3d 5ca5 94bd
00000180: b05a 23bc 305c 9a3d 0874 fcbd 223e f9bd
00000190: 9290 aa3b 780b 50bd f952 6f3d 8cb5 323d
000001a0: 5011 7c3c 77de 3f3d 53fd da3d ed7d a23c
000001b0: f460 a93d 0c85 90bd baed d23d 16df b6bc
000001c0: 7e84 8a3d c2c1 d4bd d7d8 99bd 42dc 95bd
000001d0: 5e3c 873d c07d 88bb 35fb eabd 62bd fa3d
000001e0: f363 053d 2274 eb3d a0a6 7f3c aaaa 923c
000001f0: 5e86 b83d f42a aebd 8aa6 f13d b6a8 a4bd
00000200: e3cd 443d 48af b9bd 7ea9 a9bd 10a2 843d
00000210: 3d07 8dbc e02d c0bc ee50 8e3d 394c fb3d
00000220: d883 06be 9b14 6cbc d7d0 143d b6fa e53d
00000230: 1f39 47bd 7974 75bd 1e42 adbd fcca 353d
00000240: 7019 b73c 1d4d 15bc 37c7 fbbc 1039 b2bd
00000250: 17d9 75bd 47c4 42bd 0317 ae3c 89ab a33d
00000260: 1532 aa3d 4e3d c2bd 2c8b d33c 805b 8fbc
00000270: 1a35 ff3d 335a b93d f7be a5bd 8f30 7abd
00000280: 125a c1bd e725 a0bc 4bb9 ddbd 1eb5 b73d
00000290: eaba 61bd b84f a0bd 88fc 213d 53bc 26bd
000002a0: 1a65 c13d 3afb c53d ed71 e4bd 2359 643d
000002b0: fb25 2d3b 48e5 553d 5332 40bd 45ab 14bd
000002c0: 720d fe3a 2c54 573d fb54 c33d 717b 473d
000002d0: c058 7b3c 7005 cabd 7d0a 7bbd 5b7a d3bd
000002e0: c06c 08be 22cb 083e f4cd 67bd 79ce acbd
000002f0: e084 67bd bb0a 8b3d 679f aabd 5e2e ccbd
00000300: 6057 bfbd 480a e13c e093 a7bb f6f9 e6bd
00000310: f21c afbd 08db ddbd c8a4 2f3d 28b4 673d
00000320: f06d ae3c 2009 24bd 0429 89bd 2c6a 4a3d
00000330: c025 ebbc f85f a4bc e4d7 27bd c8f7 b13c
00000340: 5034 f03c f654 d23d 685a e33d 74f4 03bd
00000350: 4830 983c 581c abbd 5a2e c0bd de48 d43d
00000360: 7040 713c 7493 7ebd b8b3 803d a48d 4e3d
00000370: 2c47 373d f0a3 583d a0c1 da3b 223a babd
00000380: 9694 e3bd e2ed f93d a8b7 b23d 56b9 c7bd
00000390: 289d c83d 2a6e efbd 624a aa3d ba43 b23d
000003a0: 4cd5 a03d 4cb0 583d 520e 9bbd a892 5bbd
000003b0: 3084 db3c 20ee 493d 0069 e03d 2033 b63b
000003c0: 94d6 523d b655 c1bd 58d8 cfbc 783d 983d
000003d0: b062 273c aa60 ca3d aa6b cdbd 6ed1 aabd
000003e0: d8f5 203d 6048 abbb 0ebd dabd 1476 5a3d
000003f0: 00d2 a83b 90a1 f73c 8807 e13c b685 b0bd

conv4.bias f4 [128]
-0.0765057 -0.02640704 0.0817805 -0.121831596 0.14190848 0.08855696 0.071373865 0.05841666
0.0869233 0.17298225 0.039552633 -0.010353186 0.008523468 0.12638906 -0.060518786 0.100077935
0.16997372 0.076059744 -0.051360328 -0.012566283 0.038883865 0.06866198 -0.1088306 0.021773726
-0.05892141 0.07362994 0.015726997 -0.05610408 -0.03983131 0.09748792 -0.036986113 0.023106696
0.08218852 -0.10974554 -0.03563655 -0.112710625 -0.037947383 0.022317106 -0.009063611 0.06562801
-0.085071 0.045444272 0.05186677 0.14569148 -0.032861672 0.11385773 0.0833487 0.21740901
-0.094586894 0.071948215 0.100299485 -0.052334227 0.073334 0.047413435 -0.05320531 -0.08186427
0.08729898 -0.03804025 0.07526363 -0.0134200975 0.1108687 -0.08575418 0.0033024307 0.05450014
-0.06142181 -0.020737343 0.0018686048 0.12530276 0.08232585 -0.1159264 0.0034680823 0.082681805
0.047212776 0.21081553 -0.0045569097 0.00673436 0.09367319 0.10106737 -0.017172243 0.02359217
-0.0046914066 0.16689946 -0.051647827 0.059922047 0.031540018 -0.012615645 -0.056364845 0.12615214
-0.05241447 0.08729434 -0.02780116 -0.12328541 -0.0864113 0.037382986 0.053457607 0.03691378
0.12261381 0.03864272 0.06614756 0.1820324 0.10545699 0.17372137 -0.07345256 -0.0935164
0.06427833 0.08422827 0.10996591 0.0722982 -0.027598867 0.051747847 -0.060211778 0.019540641
0.053646993 -0.041114878 -0.10505304 -0.054099042 0.15508577 -0.11625449 0.18677261 0.16112478
0.025349993 0.16047165 0.2071392 -0.010711454 -0.11892554 0.073427446 -0.040469512 -0.069432884
00000000: 05af 9cbd 9453 d8bc 897c a73d d882 f9bd
00000010: 7550 113e 5a5d b53d 762c 923d 4f46 6f3d
00000020: d804 b23d 4222 313e f101 223d 69a0 29bc
00000030: 04a6 0b3c 226c 013e 8ce2 77bd a9f5 cc3d
00000040: 970d 2e3e 36c5 9b3d 355f 52bd d0e2 4dbc
00000050: b044 1f3d a79e 8c3d 94e2 debd d05e b23c
00000060: 9457 71bd 4bcb 963d e7d5 803c 64cd 65bd
00000070: 2826 23bd bfa7 c73d c07e 17bd 414a bd3c
00000080: 7452 a83d 45c2 e0bd a2f7 11bd d4d4 e6bd
00000090: b76e 1bbd 5dd2 b63c 8a7f 14bc fa67 863d
000000a0: b439 aebd c623 3a3d 4072 543d 2630 153e
000000b0: f699 06bd 3e2e e93d b9b2 aa3d 78a0 5e3e
000000c0: c6b6 c1bd 9659 933d d169 cd3d 6a5c 56bd
000000d0: 2330 963d 9734 423d d0ed 59bd 74a8 a7bd
000000e0: cfc9 b23d 18d0 1bbd d123 9a3d f8df 5bbc
000000f0: 210f e33d e39f afbd 986d 583b 8a3b 5f3d
00000100: 7095 7bbd 5ce1 a9bc f9eb f43a 5e4f 003e
00000110: 759a a83d d26a edbd c448 633b 1455 a93d
00000120: 2f62 413d 07e0 573e 2152 95bb e8ab dc3b
00000130: bbd7 bf3d 69fc ce3d ceac 8cbc 5e44 c13c
00000140: 5fba 99bb b1e7 2a3e ac8c 53bd d270 753d
00000150: 1b30 013d dab1 4ebc d3de 66bd 072e 013e
00000160: 8eb0 56bd 60c7 b23d 42bf e3bc 107d fcbd
00000170: 68f8 b0bd e71e 193d 5df6 5a3d e732 173d
00000180: f31c fb3d d447 1e3d 5f78 873d b466 3a3e
00000190: d6f9 d73d 04e4 313e 4c6e 96bd 8785 bfbd
000001a0: 5ba4 833d df7f ac3d cf35 e13d 1411 943d
000001b0: 0517 e2bc 8df5 533d a0a0 76bd b213 a03c
000001c0: f3bc 5b3d 1368 28bd 0c26 d7bd f596 5dbd
000001d0: cece 1e3e d616 eebd 5241 3f3e e5fd 243e
000001e0: caaa cf3c ae52 243e 4c1c 543e 187f 2fbc
000001f0: 3c8f f3bd 2161 963d 5cc3 25bd d432 8ebd

conv5.weight f4 [2, 128, 1, 1]
0.029604211 0.055915214 0.07540884 -0.050294098 -0.11346714 0.09506802 0.027703645 0.06720341
0.21552435 -0.15974556 0.026155163 0.11603873 0.0614407 -0.14818487 -0.06899848 -0.043322664
-0.13311501 -0.020399636 -0.0845665 0.03644039 0.08861946 0.16657558 0.047320955 -0.087031215
-0.015231186 0.1416036 0.04610791 0.05954703 -0.07641587 0.17005132 0.03732773 -0.0620726
0.088802986 0.056659292 0.06068495 0.017160475 -0.034375794 -0.030983986 -0.03157245 0.028467147
0.016863458 0.022586275 -0.17067388 -0.13269192 -0.012954346 0.17546654 0.17290702 -0.21076578
0.037126973 -0.079166666 -0.07156111 0.124485746 0.014291122 0.1906578 -0.08670378 0.0069980742
-0.083038285 0.06845369 0.0046330155 0.15350047 0.09962227 -0.052482016 0.07996946 0.15031682
-0.05138922 0.09427498 0.120947585 -0.08776473 -0.10992777 -0.06541703 -0.0791336 -0.014844944
0.05813999 -0.1341586 0.06886738 0.0033644747 0.0274591 -0.041169785 0.13514903 0.13674812
0.04467058 -0.20759827 -0.055366937 -0.090102024 0.08354699 -0.033336684 -0.077370726 -0.061653554
0.0436499 0.014510721 -0.033643145 0.05894328 -0.06571014 0.0669098 0.031944156 -0.100173466
-0.099549755 0.08970315 0.26251286 -0.16425776 -0.06924426 -0.16911495 -0.038970154 0.082048915
0.110657185 0.17847341 -0.039236348 -0.041375067 0.058740616 0.052246027 0.06349444 -0.04309669
0.10552247 0.105520435 -0.03355141 0.11436038 0.21569079 -0.021361232 -0.10938941 -0.23904058
0.1129003 -0.13530819 -0.20939697 0.06465036 0.019588001 0.19875269 -0.073939964 -0.049790528
-0.023628078 0.058134098 -0.1299034 -0.07615865 0.0071800076 -0.10244442 0.088865794 0.03041046
-0.18711403 0.07351558 -0.0019531725 -0.083669126 -0.13095607 0.19457397 -0.058781683 0.095777735
0.06304254 -0.106903896 -0.03952217 -0.04046459 -0.16138265 -0.18261085 -0.0040145814 -0.047346584
0.05507918 -0.14728062 -0.07572929 0.058186673 -0.0583381 -0.10947582 -0.07207229 -0.08526766
-0.026186507 0.022236414 -0.004468331 0.06989624 -0.0019993887 -0.0704525 -0.11857241 0.07122853
-0.052374583 0.07887839 0.1085749 0.1397024 -0.01169794 -0.17073958 -0.193794 0.28635985
-0.0763956 0.12608859 0.010997147 -0.10139525 -0.02315559 -0.061127447 0.067452766 -0.07391681
-0.013125677 0.030009195 0.08186275 -0.19551729 -0.007811299 -0.012348892 -0.18024953 -0.05597948
-0.0740345 -0.07802806 -0.111299835 -0.026348481 0.04369208 -0.0788936 0.07653331 -0.08261176
0.024197608 0.17003989 -0.022733752 0.0012802737 -0.121735156 -0.058186136 0.005439683 -0.1630141
0.06344607 0.05340883 -0.03640583 0.14887823 0.021911582 -0.11941344 -0.03153847 0.05180405
-0.0047447337 0.07444037 -0.08708736 0.023444965 -0.08741426 -0.03886397 -0.1022847 0.071053684
0.08954846 -0.08033708 -0.2344795 0.03722201 0.07074749 0.111266755 0.026723709 -0.010375066
-0.009368433 -0.1338593 0.1664427 0.034301396 -0.049609076 -0.043012064 -0.05432772 0.07727211
-0.112752914 -0.05844053 -0.016652197 -0.06169241 -0.21993084 -0.029671274 0.15700713 0.21045305
-0.10336163 0.07793909 0.14985876 0.06238842 0.060317628 -0.17029405 -0.020985737 0.072550096
00000000: 8884 f23c 5a07 653d f36f 9a3d 2f01 4ebd
00000010: 7661 e8bd 06b3 c23d c1f2 e23c f1a1 893d
00000020: 6ab2 5c3e 5794 23be 5a43 d63c b7a5 ed3d
00000030: 3ea9 7b3d c6bd 17be 134f 8dbd 1b73 31bd
00000040: 4d4f 08be 231d a7bc 3331 adbd 8542 153d
00000050: 1f7e b53d ca92 2a3e 9ed3 413d 6c3d b2bd
00000060: 398c 79bc 8900 113e a6db 3c3d 96e7 733d
00000070: ec7f 9cbd ef21 2e3e f6e4 183d d73f 7ebd
00000080: 57de b53d 9313 683d c890 783d 2094 8c3c
00000090: a2cd 0cbd 21d2 fdbc 1d52 01bd ef33 e93c
000000a0: 3c25 8a3c da06 b93c 22c5 2ebe 64e0 07be
000000b0: 773e 54bc 80ad 333e 8a0e 313e fcd2 57be
000000c0: 7412 183d 2222 a2bd a28e 92bd 62f2 fe3d
000000d0: 4f25 6a3c cc3b 433e c091 b1bd 1a50 e53b
000000e0: fa0f aabd 7331 8c3d 8dd0 973b 3a2f 1d3e
000000f0: c306 cc3d 62f7 56bd 07c7 a33d a7ec 193e
00000100: 817d 52bd 3e13 c13d 5eb3 f73d ffbd b3bd
00000110: d021 e1bd 5df9 85bd cc10 a2bd 3538 73bc
00000120: 3324 6e3d df60 09be 570a 8d3d 857e 5c3b
00000130: e8f1 e03c a6a1 28bd 8264 0a3e b307 0c3e
00000140: 80f8 363d a494 54be 71c8 62bd 6987 b8bd
00000150: af1a ab3d 0c8c 08bd 8b74 9ebd 7088 7cbd
00000160: 3dca 323d 60be 6d3c 65cd 09bd 826e 713d
00000170: 0a93 86bd 0108 893d e0d7 023d bf27 cdbd
00000180: bee0 cbbd 49b6 b73d 1668 863e 3033 28be
00000190: efcf 8dbd 782c 2dbe 2b9f 1fbd 4309 a83d
000001a0: 3ca0 e23d bcc1 363e 4bb6 20bd e778 29bd
000001b0: 009a 703d eeff 553d 5f09 823d 2886 30bd
000001c0: 2a1c d83d 191b d83d 346d 09bd c635 ea3d
000001d0: 0cde 5c3e c0fd aebc 8e07 e0bd 0ec7 74be
000001e0: 4638 e73d 3b8e 0abe 296c 56be 6867 843d
000001f0: 0477 a03c d385 4b3e d66d 97bd 27f1 4bbd
00000200: ac8f c1bc 051e 6e3d 6605 05be 11f9 9bbd
00000210: 4546 eb3b 61ce d1bd 45ff b53d 5b1f f93c
00000220: d29a 3fbe 568f 963d cc00 00bb b85a abbd
00000230: 5919 06be 663e 473e 10c5 70bd 1e27 c43d
00000240: 721c 813d 6ef0 dabd 00e2 21bd 33be 25bd
00000250: 7e41 25be 57fe 3abe c08c 83bb 7eee 41bd
00000260: b59a 613d bbd0 16be f517 9bbd 2655 6e3d
00000270: eef3 6ebd dc34 e0bd a39a 93bd d0a0 aebd
00000280: 1685 d6bc 2429 b63c 146b 92bb c325 8f3d
00000290: 2d08 03bb 6649 90bd 17d6 f2bd 43e0 913d
000002a0: bb86 56bd fe8a a13d 845c de3d 250e 0f3e
000002b0: b7a8 3fbc 5bd6 2ebe ef71 46be c29d 923e
000002c0: 4c75 9cbd 5e1d 013e 612d 343c 50a8 cfbd
000002d0: cbb0 bdbc c660 7abd ad24 8a3d b261 97bd
000002e0: 140d 57bc d8d5 f53c a8a7 a73d af35 48be
000002f0: edf5 ffbb 0253 4abc 5593 38be bd4a 65bd
00000300: 669f 97bd 2dcd 9fbd 2bf1 e3bd c5d8 d7bc
00000310: 77f6 323d f892 a1bd 7fbd 9c3d 5b30 a9bd
00000320: 103a c63c f01e 2e3e 223c babc dbce a73a
00000330: 4850 f9bd 9654 6ebd 5e3f b23b 2bed 26be
00000340: 03f0 813d 38c3 5a3d 481e 15bd 8973 183e
00000350: eb7f b33c 098f f4bd 7c2e 01bd 7c30 543d
00000360: b679 9bbb 3174 983d dc5a b2bd a80f c03c
00000370: 3f06 b3bd d42f 1fbd a47a d1bd 9884 913d
00000380: 2f65 b73d c487 a4bd 651b 70be 1b76 183d
00000390: 0fe4 903d d3df e33d aeeb da3c 2efc 29bc
000003a0: 0e7e 19bc 6a12 09be f56f 2a3e 9f7f 0c3d
000003b0: e332 4bbd 6b2d 30bd be86 5ebd d740 9e3d
000003c0: 00eb e6bd 565f 6fbd 306a 88bc 2eb1 7cbd
000003d0: 8d35 61be 2c11 f3bc 7ac6 203e 0181 573e
000003e0: 43af d3bd 889e 9f3d 9374 193e 008b 7f3d
000003f0: 9e0f 773d 9061 2ebe 48ea abbc 2595 943d

conv5.bias f4 [2]
-0.29447514 0.25457293
00000000: 72c5 96be 6257 823e
